model.pth (torch, 11144 bytes, 13 tensors)

rg_rnn.rgrnn_cell.i2h.weight f4 [16, 12]
0	0xbd3a01a8	-0.045411736
1	0x3e72f280	0.23725319
2	0xbe28a541	-0.1646929
3	0x3e3108ed	0.17288561
4	0xbd5a67c6	-0.053321622
5	0x3e41ccbc	0.18925756
6	0xbdf201ef	-0.11816775
7	0x3eca5180	0.39515305
8	0x3dae1570	0.08500183
9	0xbcb5144b	-0.022104403
10	0xbdea8d37	-0.11452716
11	0x3c144a25	0.009050881
12	0xbdcc2dc6	-0.09969668
13	0x3af7530c	0.0018869354
14	0xbd41ecf8	-0.04734513
15	0x3e712c48	0.23552048
16	0x3e5a04b7	0.21290861
17	0x3d6f2c02	0.05839158
18	0xbde12aeb	-0.10994514
19	0x3e10d4aa	0.14143625
20	0xbe0246f3	-0.12722377
21	0x3e079720	0.13241243
22	0xbe105220	-0.14093828
23	0x3e6a65fa	0.22890463
24	0xbd6486a1	-0.055792455
25	0xbe3bf336	-0.18354496
26	0xbd730b2b	-0.059336822
27	0x3e46839a	0.1938614
28	0x3c977444	0.018488057
29	0xbe435bac	-0.19077939
30	0xbe175b9a	-0.14781037
31	0xbd822908	-0.06355482
32	0x3db80681	0.089856155
33	0xbe2716b1	-0.1631725
34	0x3e1e5258	0.15461099
35	0x3e2df3c8	0.16987526
36	0xbcc0f748	-0.023555413
37	0xbdf9869f	-0.1218388
38	0xbec79f9a	-0.38988954
39	0x3e15036e	0.1455209
40	0xbe37db24	-0.1795469
41	0xbd1e2feb	-0.038619917
42	0x3e8ef4c2	0.2792111
43	0x3e803b66	0.25045317
44	0x3dd554e4	0.10416582
45	0xbdc069a2	-0.09395148
46	0x3d891458	0.066933334
47	0xbce18d3d	-0.027533168
48	0xbddede36	-0.10882227
49	0x3e33d36d	0.17561121
50	0x3e2dc6b2	0.16970327
51	0x3ea2f03b	0.31823906
52	0xbc1572f6	-0.009121647
53	0xbd8cebfa	-0.068809465
54	0x3dbe56eb	0.09293922
55	0xbd1fffa3	-0.039062154
56	0xbe741f8e	-0.23840162
57	0xbe5ad63c	-0.21370786
58	0x3e108e33	0.14116745
59	0xbdd90f07	-0.10598569
60	0x3cf306be	0.0296663
61	0x3d920646	0.07130103
62	0x3ddc6569	0.1076153
63	0x3e97a4a1	0.2961779
64	0xbdca77ee	-0.09886156
65	0x3daae99b	0.08345338
66	0x3dd5bb94	0.10436168
67	0x3d5b8a76	0.053598844
68	0xbdb9c247	-0.090702586
69	0x3e3ee34a	0.18641391
70	0x3d8e05e7	0.069347195
71	0xbe3ae204	-0.1825028
72	0x3e0d7d69	0.13817371
73	0xbdb15cf1	-0.08660305
74	0xbca66f22	-0.020316664
75	0xbc9ee59e	-0.0193966
76	0x3e1ed52f	0.1551101
77	0xbe16d38a	-0.14729133
78	0x3d864dff	0.06557845
79	0x3dd293fe	0.102821335
80	0x3d65240c	0.05594258
81	0x3e48f51b	0.1962475
82	0xbd8a8170	-0.067629695
83	0x3dd57e49	0.104244776
84	0x3d87baa4	0.06627396
85	0xbc248bc4	-0.010043088
86	0x3da51be6	0.08061962
87	0x3e07db68	0.1326729
88	0xbde328f4	-0.110917956
89	0x3e01caf2	0.12675074
90	0x3d17f908	0.03710273
91	0xbe406bda	-0.18791142
92	0x3e995e46	0.29954737
93	0xbe058699	-0.13039626
94	0x3e26bbeb	0.16282623
95	0xbdf8e9f9	-0.12154002
96	0x3ac91e79	0.0015344165
97	0xbe47c90b	-0.19510286
98	0xbc281097	-0.010257862
99	0xbe970695	-0.2949721
100	0x3c97d91f	0.018536149
101	0xbe095539	-0.13411416
102	0xbdaa86d8	-0.08326501
103	0xbddc3bbe	-0.107535824
104	0x3e4a9a6b	0.19785468
105	0xbe402927	-0.18765698
106	0x3e2d2c37	0.16911398
107	0xbd6fd634	-0.05855389
108	0xbd2c62fe	-0.042086594
109	0xbc80390f	-0.015652208
110	0xbb56fe70	-0.0032805465
111	0x3e201750	0.15633893
112	0x3e2e98db	0.17050497
113	0xbe6d9a54	-0.23203403
114	0xbcb360a7	-0.021896673
115	0x3c648a0a	0.013948927
116	0xbc8eccdf	-0.017431675
117	0x3981df7f	0.00024771315
118	0xbc737470	-0.014859304
119	0x3e320be1	0.17387344
120	0xbe40465b	-0.18776838
121	0xbceb3020	-0.028709471
122	0x3e8e486e	0.27789634
123	0x3aa436eb	0.0012528574
124	0xbe94a413	-0.2903143
125	0x3e0a5b86	0.13511476
126	0xbc4c949c	-0.012486603
127	0x3de56a42	0.11201908
128	0x3e24c05f	0.16089009
129	0x3e56f776	0.20992836
130	0x3caa111a	0.020760108
131	0xbe2e6599	-0.17030944
132	0x3e2180e7	0.15771829
133	0xbdbce103	-0.09222605
134	0x3debf981	0.115221985
135	0xbdda2304	-0.1065121
136	0x3d97a740	0.07404947
137	0xbc55cf49	-0.013049909
138	0xbe71a491	-0.23597933
139	0xbd8ae51e	-0.06781982
140	0x3e36b732	0.17843321
141	0x3c5407ec	0.012941342
142	0xbdabd74f	-0.08390676
143	0xbe55a9e0	-0.20865583
144	0x3e2118fe	0.1573219
145	0x3e9806c8	0.29692674
146	0xbe1fa0ff	-0.15588759
147	0x3ea22164	0.316661
148	0x3e93b9d1	0.28852704
149	0x3d737b64	0.059443846
150	0x3e40742b	0.18794315
151	0xbe6fcce0	-0.23417997
152	0x3d556af7	0.052103963
153	0xbb9c8692	-0.004776784
154	0xbd4369f2	-0.04770846
155	0xbe0d061d	-0.13771863
156	0x3d942674	0.07233897
157	0xbe92b09c	-0.28650367
158	0x3eb48e86	0.35264987
159	0x3cabd10a	0.020973701
160	0x3e526945	0.2054797
161	0xbd595664	-0.053060904
162	0xbe5bcd79	-0.214651
163	0xbe4e20ac	-0.20129651
164	0x3cb5b328	0.022180155
165	0xbd494cb5	-0.04914542
166	0x3c964e4b	0.01834788
167	0x3b71d28a	0.0036899173
168	0x3e8c328d	0.27382317
169	0xbe604331	-0.21900631
170	0xbe4707f7	-0.19436632
171	0x3b838fb2	0.0040149326
172	0x3e7c4541	0.24635793
173	0x3e93a6ac	0.28838098
174	0x3b576e45	0.0032872122
175	0x3e094bee	0.13407871
176	0x3d2231c2	0.039598234
177	0xbe25605e	-0.16150042
178	0x3e4fccfb	0.20293038
179	0x3e8f5981	0.27997974
180	0xbcd7694d	-0.026295329
181	0xbd1b871b	-0.037970643
182	0xbdd6f72d	-0.10496364
183	0xbdff0695	-0.12452427
184	0x3d14f935	0.036370475
185	0xbd9f7d4d	-0.07787571
186	0xbe148281	-0.14502908
187	0xbcd3c8a2	-0.025852505
188	0x3e05f0df	0.13080166
189	0xbe1c2a8c	-0.15250605
190	0x3d813200	0.06308365
191	0x3dafebe8	0.085899174

rg_rnn.rgrnn_cell.i2h.bias f4 [16]
0	0x3e446ef2	0.19182947
1	0xbcb14cf0	-0.021643132
2	0xbea750f5	-0.32678953
3	0x3c4b221b	0.012398268
4	0x3ddea45d	0.108711936
5	0xba6981bd	-0.0008907577
6	0xbe96c9dc	-0.2945088
7	0xbed16f0f	-0.40905043
8	0x3e5d4235	0.21607287
9	0xbe9b1927	-0.30292627
10	0x3d471252	0.048601456
11	0xbe89dcc8	-0.26926255
12	0xbe4c0561	-0.19923927
13	0x3d1322ba	0.03592179
14	0x3e289754	0.16463977
15	0xbd79bcb0	-0.060970962

rg_rnn.rgrnn_cell.h2h.weight f4 [16, 16]
0	0xbe5c90cb	-0.21539609
1	0xbd1e211b	-0.03860579
2	0xbe97be8d	-0.29637566
3	0x3dd1eb94	0.10250011
4	0xbda5d544	-0.08097318
5	0x3d82ef23	0.06393268
6	0xbd86dc17	-0.065849476
7	0xbe496dc6	-0.19670781
8	0xbdabd6a7	-0.08390551
9	0x3d7a22b4	0.06106825
10	0xbe689156	-0.22711691
11	0xbe819baa	-0.25314075
12	0xbc365368	-0.011128284
13	0x3dc7311b	0.09726163
14	0x3b685d17	0.0035455876
15	0xbe66c4a0	-0.22535944
16	0x3e1d5992	0.153662
17	0x3d8a18d1	0.067430146
18	0xbcaeefa7	-0.02135451
19	0xbe76235b	-0.24036925
20	0xbdbb5656	-0.09147327
21	0xbd04eab1	-0.03245038
22	0xbd5990b7	-0.053116526
23	0xbd3c49cd	-0.04596882
24	0x3df9c0aa	0.12194951
25	0xbe84ddcd	-0.2595047
26	0x3ddd0daf	0.107936256
27	0x3d7a9ed2	0.06118662
28	0x3e02d694	0.12777168
29	0x3e8130d0	0.25232553
30	0x3e49b61a	0.19698372
31	0xbd14103b	-0.03614829
32	0x3daaec35	0.08345834
33	0x3e29056b	0.16505973
34	0x3cbbe781	0.022937538
35	0xbd27f9ea	-0.04100982
36	0x3cc99c15	0.024610559
37	0xbd9574a0	-0.07297635
38	0x3ce2a9c9	0.02766885
39	0x3e7ba146	0.2457324
40	0x3dda1e8b	0.10650357
41	0x3e04ed4f	0.12981151
42	0x3e064cdd	0.13115259
43	0x3ceb9753	0.02875868
44	0xbc7e384d	-0.015516353
45	0x3dd14691	0.102185376
46	0xbd6be86d	-0.057594705
47	0x3e2aa331	0.16663815
48	0xbd125e2c	-0.03573434
49	0x3d45d74d	0.04830103
50	0xbe71903e	-0.2359018
51	0x3e8c01df	0.27345178
52	0x3e3324ff	0.17494582
53	0x3cddb517	0.02706389
54	0x3e432202	0.19055942
55	0x3d280c8a	0.041027583
56	0xbe8536bc	-0.26018322
57	0xbe1c39ca	-0.1525642
58	0x3cc2e1a3	0.023789233
59	0xbc3163a7	-0.010826982
60	0x3e494f9f	0.1965928
61	0xbd3887ec	-0.0450515
62	0x3e156246	0.1458827
63	0xbd83c977	-0.06434911
64	0x3cddd042	0.027076844
65	0x3dcb26d1	0.09919513
66	0x3d90f2c4	0.07077554
67	0xbe4fb4d1	-0.2028382
68	0x3e26443d	0.16236968
69	0x3d96d4dc	0.073648185
70	0xbd0f0dad	-0.03492515
71	0x3db75a7f	0.08952808
72	0x3e285bd0	0.16441274
73	0xbe1a2c90	-0.15056062
74	0x3e8d8c49	0.27646092
75	0x3e80e4ed	0.25174657
76	0xbdc1ccf0	-0.09462917
77	0xbe28e2fd	-0.16492839
78	0x3d4b7c2e	0.049678974
79	0xbe302b6f	-0.17204069
80	0x3d93ca56	0.07216327
81	0x3dc343d3	0.09534421
82	0xbe02ad62	-0.12761453
83	0x3dd11cb7	0.10210555
84	0x3df9297e	0.12166117
85	0xbe3162b1	-0.17322804
86	0xbe156601	-0.14589693
87	0xbdb61ac6	-0.088918254
88	0xbe0e87ec	-0.13919038
89	0x3e1a2e24	0.15056664
90	0xbc4aaa65	-0.012369727
91	0xbe4c1dd0	-0.19933248
92	0x3dd0b1ed	0.10190187
93	0x3e9897e8	0.29803395
94	0x3e253add	0.16135736
95	0xbd9c33f2	-0.07627095
96	0xbeb0c741	-0.3452702
97	0xbe5d4dd9	-0.21611728
98	0x3e98fd4c	0.2988075
99	0x3e0129a8	0.12613547
100	0xbeb04cc4	-0.34433568
101	0x3dd74834	0.105118185
102	0x3c33d394	0.010975737
103	0x3e12d0fc	0.14337534
104	0x3e6391cf	0.2222359
105	0xbcb41c9b	-0.021986296
106	0x3e27195d	0.16318269
107	0xbe0b80ca	-0.13623348
108	0x3c2069c0	0.009790838
109	0x3c6d83df	0.014496773
110	0xbe88050f	-0.2656636
111	0x3e8a9009	0.27063015
112	0x3d49a47b	0.049229126
113	0xbe21be46	-0.1579524
114	0x3e2e7ca1	0.1703973
115	0x3dd37db7	0.103267126
116	0x3e2fada3	0.17156081
117	0xbe179398	-0.14802396
118	0x3d2188e0	0.039437175
119	0x3e818a66	0.25300902
120	0xbd208e0b	-0.039197963
121	0x3e89868e	0.2686047
122	0x3e4a6df5	0.19768508
123	0xba9963c5	-0.0011702707
124	0x3d6dff7c	0.058104977
125	0xbe73a225	-0.23792322
126	0xbd6ddb7e	-0.058070652
127	0x3e19119f	0.14948128
128	0x3d9d0a27	0.07667952
129	0xbd286779	-0.041114304
130	0x3c72705f	0.014797299
131	0xbd5ffb31	-0.054682914
132	0xbdffece8	-0.12496358
133	0x3e5fc2a9	0.218516
134	0xbe8d1637	-0.2755601
135	0xbe89ee3b	-0.26939568
136	0xbe06fd43	-0.13182549
137	0x3b59d408	0.0033237953
138	0xbdcb51e2	-0.09927727
139	0xbcb4c274	-0.022065379
140	0xbe823dca	-0.25437766
141	0xbdd0c2ad	-0.101933815
142	0xbd7727de	-0.060340755
143	0xbe881b9e	-0.2658357
144	0x3dddeecf	0.10836565
145	0xbe2c4eb1	-0.16826893
146	0x3e407017	0.18792759
147	0x3d048890	0.0323568
148	0xbdda81fe	-0.10669325
149	0xbe77b014	-0.24188262
150	0x3e83d0b1	0.25745156
151	0x3ec9a799	0.3938568
152	0x3e4bccc8	0.19902337
153	0xbd044ec9	-0.032301698
154	0x3e9808fd	0.29694358
155	0xbdea52e2	-0.1144159
156	0xbe92be5c	-0.28660858
157	0xbe0fbef5	-0.14037688
158	0xbe94c53d	-0.2905673
159	0x3e8284ce	0.25491947
160	0x3d9413e6	0.07230358
161	0xbe552be1	-0.2081752
162	0x3e7866f4	0.24258024
163	0x3caa89b6	0.020817619
164	0xbdbb0fb9	-0.09133858
165	0xbdec30f6	-0.11532776
166	0x3e4e0c56	0.20121893
167	0x3e7f69d6	0.24942717
168	0x3e3cd27a	0.18439665
169	0x3e88ac54	0.26693976
170	0x3d170cd4	0.03687747
171	0x3e30936b	0.17243735
172	0x3df1a72f	0.11799466
173	0xbe582f74	-0.21111852
174	0x3d2b2374	0.041781858
175	0x3e879fc6	0.26489085
176	0xbde2a4d7	-0.11066597
177	0xbcf5058b	-0.02990987
178	0x3db9e968	0.09077722
179	0xbdffb006	-0.12484746
180	0xbdd16870	-0.10224998
181	0xbd3fb8f6	-0.046807252
182	0xbda461cd	-0.080264665
183	0x3d87a116	0.066225216
184	0xbdb621a6	-0.08893137
185	0x3e8974a4	0.26846802
186	0x3e6f8e11	0.23394038
187	0x3bd58ebc	0.0065172594
188	0x3e372b84	0.17887694
189	0x3e8352cd	0.2564911
190	0x3d7c7eb4	0.06164427
191	0x3ddf1d6b	0.10894283
192	0xbe881da1	-0.26585105
193	0x3d43eaf7	0.0478315
194	0x3e9e6496	0.30936116
195	0xbeb019c4	-0.34394658
196	0x3d810cb2	0.063012496
197	0xbea85552	-0.32877594
198	0xbda134cc	-0.07871398
199	0xbd37a942	-0.04483915
200	0x3ea82b6f	0.32845637
201	0xbc2d5f51	-0.010581807
202	0x3dd2d02c	0.10293612
203	0x3e80a2bc	0.25124156
204	0xbe123fe6	-0.14282188
205	0xbe3f88be	-0.18704507
206	0xbdd2f038	-0.10299724
207	0xbdec63ce	-0.11542474
208	0x3e001a8f	0.12510131
209	0xbc7d3f22	-0.015456947
210	0xbe6fa434	-0.23402482
211	0x3ead48dd	0.33844653
212	0x3e7177e1	0.23580886
213	0xbe0cbb54	-0.13743335
214	0x3dfde139	0.123964734
215	0xbdba19df	-0.09086966
216	0xbda757f5	-0.08171073
217	0xbe7c53df	-0.2464137
218	0x3ce43919	0.027859258
219	0xbe9ceb9d	-0.3064851
220	0xbe9502c3	-0.2910367
221	0x3dea4ac0	0.11440039
222	0x3e8c066c	0.2734865
223	0xbe07c736	-0.13259587
224	0x3d2cc539	0.042180274
225	0xbd7f2a9a	-0.062296487
226	0x3e56f7ec	0.20993012
227	0xbe81e1c3	-0.25367555
228	0x3e07e928	0.13272536
229	0x3c94fa94	0.018185891
230	0xbc81a3bc	-0.015825145
231	0xbe2fd6e0	-0.17171812
232	0x3e160d39	0.14653482
233	0xbdf29a9e	-0.11845897
234	0x3e580685	0.21096237
235	0x3e907e5a	0.282214
236	0x3c9167f3	0.017749762
237	0xbe80beac	-0.2514547
238	0x3dbf7d69	0.09350092
239	0x3daf150f	0.085489385
240	0x3e8352b1	0.25649026
241	0x3e172e01	0.14763643
242	0x3e62a82f	0.2213447
243	0xbd5482b1	-0.05188245
244	0xbd334010	-0.043762267
245	0x3e871729	0.26384857
246	0x3cc7661c	0.024340682
247	0x3e9f0858	0.31061053
248	0xbe646557	-0.22304283
249	0xbe01dceb	-0.1268193
250	0xbcdaccce	-0.026708987
251	0x3e2da8a9	0.1695887
252	0xbd8e89aa	-0.06959851
253	0xbdb42f67	-0.08798104
254	0xbe7d8767	-0.24758683
255	0x3e0c0d22	0.13676885

rg_rnn.rgrnn_cell.h2h.bias f4 [16]
0	0x3d8763b8	0.06610817
1	0x3c44663b	0.011987264
2	0xbe5cd9b1	-0.21567418
3	0xbe5a6fa2	-0.21331647
4	0x3de8db43	0.11369946
5	0x3eae7a0b	0.34077486
6	0xbe99525a	-0.29945642
7	0xbe870ff3	-0.26379356
8	0x3deffb2e	0.117178306
9	0xbebe0df2	-0.37120014
10	0xbe244000	-0.16040039
11	0x3e14b05a	0.14520398
12	0xbd1cff6f	-0.038329538
13	0x3e4244b8	0.18971527
14	0x3d64a13d	0.05581783
15	0xbd9c15d5	-0.07621352

rg_rnn.rgrnn_cell.h2i.weight f4 [12, 16]
0	0xbe0593f2	-0.13044718
1	0x3e36389c	0.17795032
2	0xbe0256fc	-0.12728494
3	0x3e0ec5b6	0.13942608
4	0x3c4db280	0.012554765
5	0x3dc5bae8	0.0965479
6	0x3e63cb48	0.22245514
7	0xbe1e38a0	-0.15451288
8	0x3e13a6bc	0.14419073
9	0xbe245b5a	-0.16050473
10	0x3e43064a	0.19045368
11	0xbd3ba098	-0.04580745
12	0x3b0e4b00	0.0021712184
13	0xbe47370c	-0.19454592
14	0xbc670ea0	-0.014102608
15	0xbc242a80	-0.010019898
16	0x3d66e3c8	0.056369573
17	0xbd059ca0	-0.032620072
18	0x3e1cd338	0.15314949
19	0xbd36ee40	-0.044660807
20	0xbe21d01a	-0.1580204
21	0xbd9c0668	-0.076184094
22	0xbb8a01c0	-0.0042116344
23	0x3e074be6	0.13212547
24	0xbd888d10	-0.066675305
25	0x3c1f4fa0	0.009723574
26	0x3e710960	0.23538733
27	0x3cf4a580	0.029864073
28	0xbdeec0b8	-0.11657852
29	0xbe0781b2	-0.13233069
30	0x3dc2ca54	0.09511247
31	0xbe1a82a6	-0.15088901
32	0x3dfe280c	0.12409982
33	0xbd519988	-0.05117181
34	0x3e174e18	0.14775884
35	0x3e3b3012	0.18280056
36	0xbe683a94	-0.22678596
37	0x3d502b68	0.050822645
38	0xbda2bbd0	-0.07945979
39	0xbe32dd08	-0.17467129
40	0x3e627db4	0.22118264
41	0x3d606c70	0.054790914
42	0x3db96f7c	0.09054467
43	0x3e57b85a	0.21066418
44	0xbe55b6cc	-0.20870513
45	0x3e391c8e	0.18077299
46	0x3d046fd0	0.032333195
47	0xbe1f7adc	-0.15574211
48	0x3d648258	0.055788368
49	0x3e4989ee	0.19681522
50	0xbd068e38	-0.032850474
51	0xbd047000	-0.032333374
52	0x3deb9208	0.115024626
53	0xbe499222	-0.19684651
54	0x3d961ad4	0.07329336
55	0xbd8969a8	-0.067096055
56	0xbd65d158	-0.05610785
57	0xbd9d573c	-0.07682654
58	0xbe752276	-0.23938927
59	0x3d9c18ec	0.07621941
60	0x3e229998	0.15878904
61	0x3e6d009c	0.23144764
62	0x3ddd03e4	0.10791758
63	0x3d07ff38	0.03320238
64	0x3dd78a24	0.10524395
65	0xbdcbcce0	-0.09951186
66	0x3daefe20	0.08544564
67	0xbe01046c	-0.12599343
68	0x3e186a72	0.14884356
69	0xbcba66d0	-0.022754103
70	0x3ca24720	0.019809306
71	0xbde9ebc4	-0.11421922
72	0xbe43d80c	-0.19125384
73	0x3de87a68	0.11351472
74	0x3e3d08b6	0.18460354
75	0xbe5e649a	-0.21718064
76	0x3e6acfca	0.22930828
77	0xbd483ea8	-0.04888788
78	0x3c695820	0.014242202
79	0x3df5624c	0.11981639
80	0xbc650020	-0.013977081
81	0x3e7193a0	0.2359147
82	0x3e79f410	0.24409509
83	0x3dec0444	0.11524251
84	0x3de6ed30	0.11275709
85	0x3e4a5e76	0.19762596
86	0xbdff2608	-0.12458426
87	0xbda5aed4	-0.080899864
88	0xbd0991d8	-0.033586353
89	0xbe0c5568	-0.13704455
90	0xbe7e65ca	-0.24843517
91	0x3d339b08	0.04384902
92	0xbe627ef2	-0.22118738
93	0x3d00a648	0.03140858
94	0xbd29c7a8	-0.041450173
95	0x3e38d684	0.18050581
96	0xbe2168d0	-0.15762639
97	0x3d5059e8	0.05086699
98	0x3e281ede	0.16418025
99	0x3d030290	0.031984866
100	0x3c2e6100	0.010643244
101	0x3e2fe8ae	0.17178604
102	0xbca19370	-0.019723624
103	0xbe06bba2	-0.13157514
104	0xbced5900	-0.028973103
105	0x3e55570a	0.20833984
106	0xbd37f8a0	-0.04491484
107	0xbe7fb5a4	-0.24971634
108	0x3e3c20c2	0.18371871
109	0x3ca19030	0.019722074
110	0x3e4a6b5e	0.1976752
111	0xbd3d5038	-0.04621908
112	0x3e28c426	0.16481075
113	0xbd176dd0	-0.03696996
114	0xbe3c32c2	-0.18378738
115	0x3d2a38d8	0.041558117
116	0x3d3a9ba0	0.04555857
117	0x3dc28ec4	0.09499887
118	0x3e7b1266	0.24518737
119	0xbe6ce452	-0.23133972
120	0x3db35198	0.08755797
121	0xbc1e1080	-0.009647489
122	0x3d8dee18	0.069301784
123	0x3e69708c	0.2279684
124	0x3e72cec2	0.23711684
125	0x3e16b3a8	0.14716971
126	0xbca295d0	-0.019846827
127	0xbe6ff1f0	-0.23432136
128	0x3e49bcee	0.19700977
129	0x3d899068	0.067169964
130	0xbe2b67a2	-0.16738752
131	0x3cfcb930	0.030850023
132	0xbd154e90	-0.036451876
133	0xbdf86a04	-0.12129596
134	0xbda25a70	-0.07927406
135	0xbe705f86	-0.2347394
136	0xbd075540	-0.033040285
137	0xbe7a0ad0	-0.24418187
138	0x3d3c1af8	0.045924157
139	0x3db5ce44	0.08877233
140	0x3e6cd006	0.2312623
141	0x3d8f1e38	0.06988186
142	0x3cf5b1d0	0.029992014
143	0x3d9a8d90	0.07546532
144	0xbd7566b8	-0.059912413
145	0x3e2d9c24	0.16954094
146	0xbd86a1d8	-0.06573838
147	0xbdd52f48	-0.10409409
148	0xbd5c4bf0	-0.053783357
149	0x3cecc350	0.028901726
150	0xbe50ce8a	-0.20391288
151	0xbe3b3cec	-0.18284959
152	0x3e340af2	0.175823
153	0xbdd68c18	-0.104759395
154	0xbe5db0ce	-0.21649477
155	0x3d4c41b0	0.049867332
156	0xbded58a8	-0.115891755
157	0xbe2f89dc	-0.17142433
158	0xbdbaf614	-0.09128967
159	0x3d241938	0.040063113
160	0x3df91af8	0.12163347
161	0x3e11b4c6	0.14229116
162	0x3dff66e0	0.12470794
163	0xbcc65e20	-0.024214804
164	0xbe5c91ea	-0.21540037
165	0xbd8dbb08	-0.06920439
166	0x3d2fea80	0.042948246
167	0x3e344f48	0.17608368
168	0xbd4aeb08	-0.04954055
169	0xbd645698	-0.055746645
170	0xbdf5d748	-0.12003952
171	0xbe3f7ff2	-0.18701151
172	0xbe2adad4	-0.16685039
173	0x3d2b0600	0.04175377
174	0xbd6006e8	-0.054694086
175	0x3e05c950	0.13065076
176	0xbe0c40b4	-0.13696557
177	0x3dbb7cf4	0.09154692
178	0x3c590bc0	0.01324743
179	0xbe6bc008	-0.23022473
180	0xbe6a2f54	-0.22869617
181	0x3e60ae20	0.21941423
182	0xbe7f6460	-0.24940634
183	0x3d85d5f0	0.06534946
184	0x3e3ebefc	0.18627542
185	0xbb91ae00	-0.0044457912
186	0xbcf85db0	-0.030318111
187	0xbe3ee508	-0.18642056
188	0xbd95d2a4	-0.07315567
189	0xbe71a3ea	-0.23597685
190	0x3e187bfa	0.14891043
191	0x3e26c3b4	0.16285592

rg_rnn.rgrnn_cell.h2i.bias f4 [12]
0	0xbe3443cc	-0.17603987
1	0x3e71f592	0.23628834
2	0x3d7cefa8	0.06175199
3	0xbd6ae9c8	-0.057351857
4	0xbe602da4	-0.2189241
5	0xbd947214	-0.07248321
6	0x3d46bf90	0.048522532
7	0x3dbce600	0.092235565
8	0xbda891bc	-0.082309216
9	0xbe0a31b0	-0.13495517
10	0x3e33d420	0.17561388
11	0x3df048b0	0.11732614

rg_rnn.rgrnn_cell.forget_gate.weight f4 [16, 28]
0	0x3e26cc0d	0.16288777
1	0xbe2868d1	-0.16446234
2	0x3e1883fa	0.14894095
3	0xbe2dce84	-0.1697331
4	0x3e096c64	0.13420254
5	0xbe3a98b7	-0.18222319
6	0xbdc7fe46	-0.09765296
7	0x3de5afc1	0.11215163
8	0x3db9e4ae	0.0907682
9	0xbe00fa57	-0.12595497
10	0x3df4e219	0.11957187
11	0x3b8f88c3	0.004380317
12	0xbe37a236	-0.17932972
13	0x3e0d70e8	0.13812602
14	0xbd271765	-0.040793795
15	0xbe36f54f	-0.17867015
16	0xbdc71717	-0.09721201
17	0xbda05739	-0.078291364
18	0x3d818510	0.06324208
19	0xbe1113c0	-0.1416769
20	0xbd7cfe93	-0.06176622
21	0xbd831388	-0.0640021
22	0x3e01eb6c	0.12687463
23	0xbc4e73d0	-0.012600854
24	0xbe0b0ec6	-0.13579854
25	0x3d482526	0.048863553
26	0x3d94bb2f	0.07262265
27	0xbe21dc1f	-0.15806626
28	0x3e1a7c88	0.15086567
29	0x3c861b08	0.016370311
30	0xbdb7ac6c	-0.08968434
31	0x3c2d9c8f	0.0105964085
32	0x3df34d82	0.11880018
33	0xbdd20bac	-0.102561325
34	0x3e379af2	0.179302
35	0xbdf6436f	-0.12024581
36	0xbe086083	-0.13318066
37	0xbdd09919	-0.10185451
38	0xbda39fe6	-0.079894826
39	0xbe195011	-0.14971949
40	0xbd840461	-0.06446148
41	0x3e04f07a	0.1298236
42	0xbdbee756	-0.093214676
43	0x3d9dbef1	0.07702435
44	0xbdebbe4f	-0.11510908
45	0x3d806e93	0.0627109
46	0xbe01fd95	-0.1269439
47	0x3c40550e	0.011739029
48	0x3df327e4	0.11872843
49	0xbd9be857	-0.07612675
50	0xbd122757	-0.03568205
51	0xbdd67819	-0.104721256
52	0xbe049a62	-0.12949517
53	0xbdde1ec5	-0.108457126
54	0x3dd43bc1	0.1036296
55	0xbd2d501d	-0.04231273
56	0x3d5c57a7	0.05379453
57	0x3d3534ed	0.044239927
58	0xbddb4072	-0.10705651
59	0x3d6e7d37	0.058224883
60	0xbc689e01	-0.014197827
61	0x3dcd6c8f	0.100304715
62	0x3e0a165b	0.1348509
63	0x3df01a0f	0.1172372
64	0xbe06b32d	-0.13154288
65	0xbe246053	-0.1605237
66	0x3dadc037	0.08483928
67	0x3cf4e45a	0.029894043
68	0xbe350e93	-0.17681341
69	0x3e27f1d5	0.16400845
70	0xbd444386	-0.047915958
71	0xbe16e333	-0.14735107
72	0x3db7586b	0.08952411
73	0x3d2fc02e	0.042907886
74	0xbda47350	-0.080298066
75	0xbd949661	-0.07255245
76	0x3e21741e	0.15766951
77	0x3e357dc3	0.17723756
78	0x3ddbcd24	0.10732487
79	0x3e2a8c79	0.16655149
80	0x3dc5df54	0.09661737
81	0x3d2d4d6c	0.042310163
82	0x3dae5c66	0.08513717
83	0xbe2b61ae	-0.1673648
84	0x3ce7877d	0.028262848
85	0xbdaa8603	-0.08326342
86	0xbb076964	-0.0020662183
87	0xbd324925	-0.043526787
88	0x3d88f4c3	0.066873096
89	0x3dbe7bd7	0.09300964
90	0xbd147ea0	-0.03625357
91	0xbd4a0560	-0.049321532
92	0xbdd84cd2	-0.10561527
93	0x3e283923	0.16428046
94	0x3cdeb7b4	0.027187206
95	0x3cb19a4a	0.021680016
96	0x3d2494c3	0.040180933
97	0xbe181cda	-0.14854756
98	0xbdbb4803	-0.091445945
99	0x3d804325	0.06262807
100	0x3ce3e521	0.027819218
101	0xbd9f833c	-0.07788703
102	0x3c143853	0.009046632
103	0x3de22a8c	0.110432714
104	0xbda9c2d1	-0.082891114
105	0xbd96eeab	-0.07369741
106	0x3dabad76	0.083826944
107	0xbd63e9c9	-0.055642877
108	0xbde32ef1	-0.11092938
109	0xbe34a491	-0.17640902
110	0x3de1766c	0.11008915
111	0x3df7725f	0.120823614
112	0xbca195b5	-0.019724706
113	0x3dac5378	0.08414358
114	0x3db2151b	0.08695432
115	0x3d970ce8	0.073755085
116	0xbd0076a4	-0.031363145
117	0x3de42556	0.11139934
118	0x3e356ef3	0.17718105
119	0xbd9b1cb3	-0.07573833
120	0x3e3748b9	0.17898835
121	0xbc221037	-0.009891561
122	0x3d7def56	0.061995827
123	0xbda5d7e0	-0.080978155
124	0xbe26def9	-0.16295995
125	0xbbf2592b	-0.0073958836
126	0xbd992d60	-0.07479358
127	0xbe1ca332	-0.15296629
128	0x3ddc00da	0.1074235
129	0xbd0c56de	-0.03426253
130	0xbdc0c904	-0.09413341
131	0x3d88bfdc	0.06677219
132	0x3e097f7f	0.13427542
133	0x3afcbb34	0.0019281865
134	0x3e1c2df3	0.15251903
135	0xbd89d2d7	-0.06729668
136	0x3ded07db	0.11573764
137	0xbe18090b	-0.148472
138	0x3d8f9551	0.07010902
139	0xbdebf161	-0.11520649
140	0xbbfe6aa6	-0.0077641783
141	0x3dea132c	0.11429438
142	0x3e2504eb	0.16115157
143	0xbdd514ee	-0.10404383
144	0xbd84f8dd	-0.064927794
145	0xbd17cb8b	-0.037059348
146	0x3b9560be	0.0045586517
147	0x3d41f50d	0.04735284
148	0xbde56c50	-0.112022996
149	0x3dfb03a1	0.122565515
150	0x3d558fb0	0.052138984
151	0x3dbe8b9f	0.09303974
152	0x3d427f57	0.047484722
153	0xbc568f67	-0.013095713
154	0x3de30b87	0.11086183
155	0xbe1e876d	-0.15481348
156	0xbe2534d0	-0.16133428
157	0x3d068acb	0.032847207
158	0xbd93840f	-0.072029226
159	0xbb76ca46	-0.0037657185
160	0xbe0c5d5f	-0.13707493
161	0xbd28ac7b	-0.041180115
162	0xbd00baad	-0.031428028
163	0xbdfac12e	-0.12243877
164	0x3e07f3af	0.13276552
165	0x3de9fb14	0.114248425
166	0x3e3c2931	0.18375088
167	0x3e22d9c7	0.15903388
168	0x3d89322c	0.06699023
169	0xbda91441	-0.08255816
170	0xbe0b99a1	-0.13632824
171	0xbc9e6f52	-0.019340191
172	0x3e24b23a	0.16083613
173	0xbc0f69ac	-0.0087532215
174	0x3e08fd5d	0.133779
175	0xbddaf79a	-0.106917575
176	0xbe382b33	-0.17985229
177	0x3d150883	0.03638507
178	0xbe0e1bc8	-0.13877785
179	0x3dd54a30	0.10414541
180	0x3e2c022c	0.16797704
181	0x3da10a22	0.07863261
182	0xbd8bcc6e	-0.06826101
183	0x3dcab518	0.09897822
184	0x3c2c244b	0.0105067
185	0x3de056f8	0.10954088
186	0xbc3e5c18	-0.011618637
187	0x3d104649	0.03522328
188	0xbe1ea1cd	-0.1549141
189	0x3dc8fc8d	0.09813795
190	0x3ddea3d6	0.10871093
191	0x3c4c0f82	0.012454869
192	0xbdeee22b	-0.11664232
193	0x3d2ffa21	0.04296315
194	0xbd82241a	-0.06354542
195	0xbe292dd3	-0.16521387
196	0x3d402ed5	0.046919663
197	0x3e0131c9	0.12616648
198	0x3e2db02c	0.16961735
199	0xbd3e6f04	-0.04649259
200	0x3acbb606	0.0015541918
201	0x3e36cbba	0.17851153
202	0xbe00063a	-0.12502375
203	0xbe1daa03	-0.15396886
204	0xbe394840	-0.18093967
205	0x3e278afc	0.16361612
206	0xbe30103d	-0.17193694
207	0x3daded32	0.08492507
208	0x3d6b7951	0.057488743
209	0xbe011b49	-0.12608065
210	0xbe092379	-0.13392438
211	0xbd530b84	-0.051524654
212	0xbdf76cf0	-0.12081325
213	0xbddfaf0f	-0.10922062
214	0xbd1b1515	-0.037861902
215	0xbe18df25	-0.14928873
216	0x3cdec415	0.027193109
217	0xbe214484	-0.15748793
218	0xbe0457f8	-0.12924182
219	0xbd685fc8	-0.05673197
220	0xbd21890c	-0.03943734
221	0xbe28d150	-0.16486096
222	0xbcd27143	-0.025688773
223	0x3c641742	0.013921561
224	0x3dce3281	0.100682266
225	0xbe07c47c	-0.13258547
226	0x3e0a0ce9	0.13481487
227	0x3e212f7c	0.1574077
228	0xbcd3c1a6	-0.025849175
229	0x3cfafa2e	0.030636873
230	0x3d33bdad	0.04388206
231	0xbe080354	-0.1328252
232	0x3dc95630	0.09830892
233	0xbdd38049	-0.10327203
234	0x3c7bca58	0.015368067
235	0x3e21c6c1	0.15798475
236	0x3df54c05	0.1197739
237	0x3ce9e4fd	0.028551573
238	0x3d6541d4	0.05597098
239	0xbcb792d4	-0.02240888
240	0xbe3af6e6	-0.18258247
241	0xbdb42978	-0.08796972
242	0xbe27bdf3	-0.16381054
243	0x3d990c9a	0.07473107
244	0xbdcfb35e	-0.101416335
245	0xbcd80468	-0.026369289
246	0x3e021a2d	0.12705298
247	0xbdf196e5	-0.11796359
248	0xbdd083d1	-0.10181392
249	0x3a520f46	0.000801314
250	0x3d137e64	0.036009207
251	0x3d53dd56	0.051724754
252	0xbd874f04	-0.06606868
253	0xbe3ec3cd	-0.1862938
254	0xbe2a9175	-0.1665705
255	0xbd9ba2ce	-0.07599412

rg_rnn.rgrnn_cell.forget_gate.bias f4 [16]
0	0xbe238daa	-0.1597201
1	0xbe345afd	-0.17612834
2	0x3d1336a0	0.035940766
3	0xbe1521df	-0.14563702
4	0xbb3d6426	-0.0028898804
5	0x3dce8c79	0.10085387
6	0xbad18ec4	-0.0015987982
7	0x3dcadb59	0.099051185
8	0x3d5bb17e	0.053636067
9	0xbe20d1b7	-0.15705
10	0x3c795c98	0.01521983
11	0x3e2b10e2	0.16705659
12	0xbd5877c2	-0.052848585
13	0xbd4ec1a6	-0.050477646
14	0x3dff1981	0.12456036
15	0x3cced8f7	0.025249941

rg_rnn.fc.weight f4 [16, 16]
0	0x3e690c8c	0.22758693
1	0x3ebc7f8d	0.36816064
2	0xbe82bce4	-0.25534737
3	0x3edd60c1	0.4323788
4	0x3e965b23	0.29366407
5	0x3ef8583a	0.48504812
6	0xbbe4367e	-0.006964504
7	0xbeb0b0ec	-0.3450998
8	0xbda7941c	-0.081825465
9	0xbe275cf0	-0.16344047
10	0xbee044fc	-0.4380263
11	0xbebedc57	-0.3727748
12	0x3ea93257	0.3304622
13	0xbee4c95b	-0.44684872
14	0x3d9bd056	0.07608096
15	0xbe3de8be	-0.18545815
16	0x3d41008f	0.047119673
17	0x3e835a62	0.25654894
18	0xbd854563	-0.06507375
19	0x3e05e5d6	0.13075957
20	0x3ee4422e	0.4458174
21	0x3d2b496d	0.04181807
22	0xbe423ffd	-0.18969722
23	0xbe9e3039	-0.30896166
24	0xbe8c55ae	-0.27409118
25	0xbedb1016	-0.4278571
26	0xbd35153e	-0.04420971
27	0xbd9cb228	-0.07651168
28	0x3f12fbde	0.5741557
29	0xbe3ef8b1	-0.18649556
30	0x3e130e52	0.14360932
31	0xbecf0440	-0.4043293
32	0xbeee2bf1	-0.465179
33	0xbe873f2b	-0.2641538
34	0x3ef86626	0.48515433
35	0xbec0f503	-0.3768693
36	0xbeff9034	-0.49914706
37	0xbecee4b5	-0.40408865
38	0x3ea00268	0.31251836
39	0x3efa8edf	0.48937127
40	0x3eded56a	0.43522197
41	0x3ee67cb4	0.45017016
42	0x3e86dcd2	0.26340348
43	0x3e4dd731	0.2010162
44	0xbec84958	-0.39118457
45	0x3f03dd2a	0.51509345
46	0xbea19040	-0.31555367
47	0x3ef97984	0.48725522
48	0x3ecccf13	0.40001735
49	0x3e038f04	0.12847525
50	0xbece7fc3	-0.4033185
51	0x3ef5ed73	0.48032722
52	0x3eee1106	0.46497363
53	0x3ea2448a	0.31692916
54	0xbe84e7d0	-0.2595811
55	0xbe94c6bc	-0.29057872
56	0xbeb19c23	-0.34689435
57	0xbed2a05f	-0.41137978
58	0xbdecc90e	-0.11561786
59	0xbe7f7b85	-0.24949463
60	0x3ea648c4	0.3247739
61	0xbd4b9188	-0.049699336
62	0x3ed7ec1b	0.42172322
63	0xbe16b9b3	-0.14719276
64	0x3ea5fbf7	0.32418796
65	0x3e81b64f	0.25334403
66	0xbed0ccf7	-0.40781376
67	0x3eef7abb	0.46773323
68	0x3da94c0a	0.082664564
69	0x3e8eb0b8	0.278692
70	0xbd9f2a16	-0.07771699
71	0xbefa3987	-0.48872015
72	0xbea75fc1	-0.32690242
73	0xbdf446f7	-0.11927598
74	0xbec79293	-0.38979015
75	0xbc210816	-0.009828588
76	0x3e26e18e	0.1629698
77	0xbf004ea4	-0.50119996
78	0x3ed96502	0.42459875
79	0xbeb34de3	-0.3502036
80	0x3dc582f3	0.09644117
81	0x3ea425c8	0.32060075
82	0xbe4df2b4	-0.20112115
83	0x3e22b294	0.15888435
84	0x3ec70488	0.38870645
85	0x3edfb75d	0.43694583
86	0xbeb29e90	-0.348866
87	0xbe162b94	-0.14665061
88	0xbe5eb401	-0.21748354
89	0xbe9884a7	-0.29788706
90	0xbe8193a8	-0.25307965
91	0xbebb1206	-0.36537188
92	0x3ed859bf	0.4225597
93	0xbef31003	-0.47473153
94	0x3d6ba278	0.05752799
95	0xbeb76c84	-0.35824978
96	0x3ec91cbd	0.39279738
97	0x3ec62e28	0.3870709
98	0xbe4f904e	-0.20269892
99	0xbc860bfc	-0.016363136
100	0xbcd15e2e	-0.025557604
101	0x3e88e09e	0.2673387
102	0xbe415bfc	-0.18882746
103	0xbe23d9c2	-0.16001037
104	0xbdf94a31	-0.12172354
105	0xbe3b6588	-0.1830045
106	0xbe4a129c	-0.19733661
107	0x3d183f3f	0.03716969
108	0x3c827015	0.015922586
109	0xbebb0706	-0.36528796
110	0x3e90d45b	0.28287014
111	0xbebbf7c7	-0.36712477
112	0xbeaad4bc	-0.33365428
113	0xbdf86625	-0.121288575
114	0x3e00fdb5	0.12596782
115	0xbe2ac333	-0.16676025
116	0xbe8f8856	-0.28033704
117	0xbe0c43ef	-0.1369779
118	0x3d6016f6	0.054709397
119	0x3da1b7b7	0.07896369
120	0x3ea18235	0.31544653
121	0x3db71805	0.08940128
122	0x3edec6fc	0.43511188
123	0x3eb18b95	0.34676805
124	0xbe0be141	-0.13660146
125	0x3edff0f2	0.43738514
126	0xbe79d65d	-0.2439818
127	0x3efd7413	0.4950262
128	0xbe92168b	-0.28532824
129	0xbeacb9be	-0.3373546
130	0x3d8e64c3	0.069528125
131	0xbed68d0e	-0.4190449
132	0xbf04845f	-0.5176448
133	0xbeaab214	-0.33338988
134	0x3eda18dc	0.4259709
135	0x3ef583ad	0.47952023
136	0x3dcd5bb5	0.10027257
137	0x3ea29523	0.31754407
138	0x3eba3e3a	0.363756
139	0x3e4768f5	0.19473632
140	0xbe8aead1	-0.27132276
141	0x3ed7b17a	0.4212759
142	0xbdc57c1b	-0.09642812
143	0x3ea3ce4e	0.31993335
144	0xbe44dabe	-0.19224069
145	0xbeadf1e9	-0.33973625
146	0x3e6bbed6	0.23022017
147	0xbe3ce7ee	-0.18447849
148	0xbf0da8fa	-0.5533596
149	0xbec5590e	-0.38544506
150	0x3ddc010d	0.10742388
151	0x3ed9646a	0.42459422
152	0x3ec62d18	0.3870628
153	0x3e842746	0.25811213
154	0x3e020cfd	0.12700267
155	0x3ec2cad6	0.38045377
156	0xbecb6cfb	-0.39731583
157	0x3ee44225	0.44581714
158	0xbd22deac	-0.039763138
159	0x3ea077ed	0.31341496
160	0x3ec6526d	0.3873476
161	0x3f01410d	0.50489885
162	0xbe8156b0	-0.2526145
163	0x3ecbedb1	0.39829782
164	0x3e40cb4f	0.18827556
165	0x3ea7d846	0.3278219
166	0xbee6e1c7	-0.4509413
167	0xbe1ea785	-0.15493591
168	0xbeee82bf	-0.46584126
169	0xbd4edfc6	-0.050506376
170	0xbd2cca13	-0.0421849
171	0xbeec4ad6	-0.46150845
172	0x3e70c699	0.23513259
173	0xbea635f7	-0.32463047
174	0x3e870494	0.2637068
175	0xbd75d5c4	-0.060018316
176	0x3e8552a3	0.2603961
177	0x3f02056c	0.50789523
178	0xbebb9f5c	-0.3664502
179	0x3e92a770	0.2864337
180	0x3ee6f707	0.45110342
181	0x3e8b4691	0.27202275
182	0xbec78223	-0.38966474
183	0xbdd9ebbf	-0.10640668
184	0xbe8194cc	-0.25308836
185	0xbee589c2	-0.44831663
186	0xbec7a1a1	-0.389905
187	0xbee74d8a	-0.45176345
188	0x3e6bc0cf	0.2302277
189	0xbeaaba58	-0.33345294
190	0x3d98094e	0.0742365
191	0xbe1e21e3	-0.15442614
192	0xbe70a02a	-0.23498598
193	0xbef236ca	-0.47307426
194	0x3f0b2496	0.543527
195	0xbe6b17d0	-0.22958302
196	0xbe8f836b	-0.2802995
197	0xbe3294d9	-0.17439593
198	0x3ed02810	0.40655565
199	0x3d905f46	0.07049422
200	0x3db7a789	0.08967502
201	0x3ef91a6f	0.4865298
202	0x3e931de8	0.28733754
203	0x3ed71842	0.42010695
204	0xbf1044bd	-0.56354886
205	0x3ea55779	0.322933
206	0xbe50b4e1	-0.203815
207	0x3f020147	0.507832
208	0x3edf2a8f	0.43587157
209	0x3f089193	0.5334713
210	0xbdb17284	-0.0866442
211	0x3e431a61	0.19053032
212	0x3eccb686	0.39983004
213	0x3e0861c9	0.13318552
214	0xbea8bca8	-0.32956433
215	0xbec16496	-0.37772053
216	0xbd9800bb	-0.07422014
217	0xbeb1af77	-0.34704182
218	0xbeb9f40e	-0.3631901
219	0xbe90682a	-0.2820447
220	0x3e8635d0	0.2621293
221	0xbef07a15	-0.4696814
222	0x3e4196e3	0.18905215
223	0xbefd7e1d	-0.4951028
224	0x3e90d212	0.2828527
225	0x3e87eb0d	0.26546517
226	0xbebe5dc8	-0.37180924
227	0x3e243e6d	0.16039439
228	0x3ee17b95	0.44039598
229	0x3e8ded4d	0.2772011
230	0xbe65a4c2	-0.22426131
231	0xbe122bd8	-0.14274538
232	0xbee8fdee	-0.45506233
233	0x3da257c9	0.079269
234	0xbe1ff3cf	-0.1562035
235	0x3ba1348e	0.004919595
236	0x3eaea4fc	0.34110248
237	0xbe9cd331	-0.30629876
238	0x3edfb9fb	0.4369658
239	0xbdf6cf5c	-0.120512694
240	0x3ebf36a9	0.3734639
241	0x3dc834bc	0.09775683
242	0xbe5b404f	-0.2141125
243	0x3ebd6da3	0.3699771
244	0x3eb29a4b	0.3488334
245	0x3e7fd90b	0.24985139
246	0x3d15c878	0.036568135
247	0xbeada3d8	-0.33914065
248	0xbed7262e	-0.42021316
249	0xbd1d4330	-0.038394153
250	0xbb9e002e	-0.0048217988
251	0xbebfe9a2	-0.37482935
252	0x3e143a71	0.14475419
253	0xbdd68072	-0.10473718
254	0x3ed09a8b	0.40742907
255	0xbe787bc6	-0.24265966

rg_rnn.fc.bias f4 [16]
0	0x3de9d087	0.114167266
1	0x3ed5ebdb	0.41781506
2	0xbe57c609	-0.21071638
3	0x3df357f9	0.11882014
4	0x3df2e245	0.11859564
5	0x3bb827cb	0.005619978
6	0xbd920c29	-0.071312256
7	0xbe8d95a0	-0.27653217
8	0xbe216bea	-0.15763822
9	0xbe814f11	-0.25255635
10	0x3e61a6ad	0.22036238
11	0x3eafe2cf	0.3435273
12	0xbeb42acd	-0.35188904
13	0x3e378a35	0.17923816
14	0x3e439c75	0.19102652
15	0x3ca2f31a	0.01989131

fc1.weight f4 [16, 16]
0	0xbd31ed6c	-0.043439314
1	0xbec75f2c	-0.38939798
2	0x3e9ae454	0.30252326
3	0x3c85244e	0.016252663
4	0xbe7787bd	-0.24172874
5	0xbe9d37f6	-0.30706757
6	0xbdbc0f20	-0.09182572
7	0x3ea1723d	0.3153247
8	0x3e3999d4	0.18125087
9	0x3ea6925d	0.3253354
10	0xbe08776b	-0.13326804
11	0xbec0f1bc	-0.3768443
12	0x3e9bcf47	0.30431578
13	0xbe7decb6	-0.2479733
14	0xbe77e08f	-0.24206756
15	0xbe2a9843	-0.16659646
16	0x3e268b69	0.16264118
17	0x3e955542	0.2916661
18	0xbed6d345	-0.4195806
19	0x3e8f5409	0.279938
20	0x3e248876	0.1606768
21	0x3e02afbc	0.1276235
22	0x3e9dd637	0.30827495
23	0xbe047e83	-0.12938885
24	0xbe4f8795	-0.20266564
25	0xbf0af083	-0.5427324
26	0x3ec8ba1d	0.39204493
27	0x3ecbbea1	0.39793876
28	0xbee0e595	-0.43925157
29	0x3e59fe00	0.212883
30	0x3ef17c66	0.4716522
31	0x3e2b1f7e	0.16711232
32	0xbe40ff92	-0.18847492
33	0xbd1d75cd	-0.03844242
34	0x3e06dbe4	0.13169819
35	0x3d78951b	0.060689073
36	0xbdaf788b	-0.085679136
37	0xbdbdf34f	-0.09274923
38	0x3d9cd707	0.07658201
39	0x3e32c65a	0.17458478
40	0xbe8f0fdf	-0.27941796
41	0x3dc69b62	0.09697606
42	0xbcaaadd5	-0.020834843
43	0x3e555cc8	0.20836174
44	0x3dad4bf3	0.08461752
45	0x3e6ddd06	0.23228845
46	0x3e3f0971	0.18655945
47	0x3c9be1f5	0.019028643
48	0xbe74228c	-0.23841304
49	0xbe02082d	-0.12698431
50	0x3e9dc27d	0.30812445
51	0x3b935d81	0.0044972305
52	0xbdab83b3	-0.08374729
53	0x3d9f36e3	0.07774141
54	0x3d034bd7	0.03205475
55	0x3e6cf2de	0.23139521
56	0x3d75992b	0.059960525
57	0x3d0f27e3	0.03495015
58	0xbe5d947e	-0.21638677
59	0xbe9b3f37	-0.30321667
60	0x3ec90da7	0.39268228
61	0x3d08b70a	0.033377685
62	0xbdfb7d0b	-0.122797094
63	0xbe6f825a	-0.23389569
64	0x3ebf4926	0.37360495
65	0x3ea6a186	0.32545108
66	0xbe992c02	-0.29916388
67	0x3ec5b516	0.3861472
68	0x3e37de64	0.17955929
69	0x3e5d1f5c	0.21593994
70	0x3e4ad78a	0.19808784
71	0xbec90cff	-0.39267728
72	0xbebb42ae	-0.3657431
73	0xbdbf2b96	-0.09334485
74	0x3e8bf5da	0.27336007
75	0x3eb83de3	0.35984716
76	0xbe4a2b21	-0.19743015
77	0x3e98b6a0	0.29826832
78	0x3dd3e340	0.10346079
79	0x3e6e4847	0.23269759
80	0xbdaecd06	-0.08535199
81	0xbe3ea292	-0.18616703
82	0x3e407db4	0.18797952
83	0xbeba11e1	-0.36341766
84	0xbebbb7d3	-0.36663684
85	0xbe2fdf74	-0.17175084
86	0xbe49de00	-0.19713593
87	0x3ea09ce1	0.3136969
88	0xbc0c4673	-0.008561718
89	0x3ec7b83b	0.39007744
90	0xbe85afb7	-0.26110622
91	0xbea329c7	-0.3186781
92	0xbcaa8469	-0.020815091
93	0xbe6ac3a6	-0.22926196
94	0xbe8eafac	-0.27868402
95	0xbd9f43ff	-0.07776641
96	0xbbb6122d	-0.005556366
97	0xbd7a352e	-0.061085872
98	0x3e80592d	0.25068036
99	0xbe4cd922	-0.20004705
100	0xbebd2de2	-0.36949068
101	0xbe1bf025	-0.15228327
102	0x3cb99ca5	0.022657702
103	0x3ebd25d7	0.36942932
104	0x3ce02550	0.027361542
105	0x3ebf8cfe	0.37412256
106	0x3e054efc	0.13018411
107	0x3db7b34b	0.08969744
108	0x3dde7029	0.108612366
109	0xbea2da24	-0.31807053
110	0xbd8c14ca	-0.06839903
111	0xbe45090f	-0.19241737
112	0xbe9022b9	-0.2815149
113	0x3d6a496e	0.057198934
114	0x3ebe26ec	0.3713907
115	0x3d973756	0.07383601
116	0xbda911fd	-0.08255384
117	0xbd0756e6	-0.033041857
118	0xbe958d09	-0.29209164
119	0x3eab5f95	0.3347136
120	0x3e2c0640	0.16799259
121	0x3dddd0e1	0.10830856
122	0xbc62795e	-0.0138228815
123	0xbc933839	-0.017971145
124	0x3e92bef4	0.2866131
125	0x3d76d556	0.060262047
126	0x3d40b481	0.047047142
127	0xbeab2fbb	-0.33434853
128	0xbe3cef6c	-0.18450707
129	0xbdcbf3f3	-0.09958639
130	0x3d11f011	0.035629336
131	0xbd5a1942	-0.053246744
132	0xbd68a984	-0.056802288
133	0x3e4d9f2b	0.20080249
134	0xbe0bc74c	-0.13650244
135	0xbd516e11	-0.051130358
136	0x3e4c6603	0.1996079
137	0xbe824491	-0.25442937
138	0x3e0e1115	0.13873704
139	0xbe5e814f	-0.21729015
140	0x3dd4abf4	0.1038436
141	0x3db70c14	0.089378506
142	0x3dd84be0	0.10561347
143	0x3e818609	0.25297573
144	0x3eb4aa16	0.35286015
145	0x3e9ce295	0.30641618
146	0xbdea42ab	-0.11438497
147	0x3e7caf8d	0.24676342
148	0x3ec34ba8	0.3814366
149	0x3ec247d4	0.37945426
150	0x3ea3e7f2	0.32012898
151	0xbe55005c	-0.20800918
152	0xbeb77a36	-0.35835427
153	0xbe6277cf	-0.22116016
154	0xbaf75a66	-0.0018871545
155	0x3e65777d	0.22408862
156	0xbd340273	-0.04394765
157	0x3eac2795	0.3362395
158	0x3e86a53d	0.26297942
159	0x3e3c7b38	0.18406379
160	0xbe530da2	-0.2061067
161	0xbe7b89b5	-0.2456425
162	0x3eb2ee32	0.34947354
163	0xbe36c71c	-0.17849392
164	0xbe8554fd	-0.26041403
165	0x3e09e26d	0.13465281
166	0xbd3b56ea	-0.045737185
167	0x3e91f4ff	0.2850723
168	0x3e94f403	0.29092416
169	0x3e3b1a01	0.18271638
170	0xbe2b7934	-0.16745454
171	0xbe6d12a9	-0.2315165
172	0x3dda9bd3	0.10674252
173	0xbda5380c	-0.08067331
174	0x3db62c08	0.08895117
175	0xbdace61f	-0.084423296
176	0xbe989b23	-0.2980586
177	0xbe10234e	-0.14075968
178	0x3eb3972f	0.3507628
179	0xbde28591	-0.11060632
180	0xbe7bca24	-0.2458883
181	0xbd9036a3	-0.07041671
182	0x3c7490c2	0.014927091
183	0x3cf7b4ac	0.030237518
184	0x3e9844b6	0.29739922
185	0x3e7b6e2b	0.24553744
186	0xbe912f0a	-0.283562
187	0xbe82ebc4	-0.255705
188	0x3e1a107b	0.1504535
189	0xbeb3a578	-0.3508718
190	0x3d194ff5	0.03742977
191	0xbe1fb87b	-0.15597717
192	0xbeac899c	-0.33698738
193	0xbe80fa72	-0.25191075
194	0x3e8ac755	0.27105203
195	0xbc4e93d7	-0.01260849
196	0xbe9280f3	-0.28614005
197	0xbe42d99f	-0.19028328
198	0xbe16c26d	-0.14722605
199	0x3e2e44a1	0.17018367
200	0x3e8fa53c	0.2805575
201	0xbd526280	-0.05136347
202	0x3d2c177e	0.04201459
203	0xbe447767	-0.19186173
204	0x3e093161	0.13397743
205	0x3df128f3	0.117753886
206	0x3d9ec8ff	0.07753181
207	0xbd8cf07f	-0.068818085
208	0xbe3561f6	-0.1771315
209	0xbe10d690	-0.14144349
210	0x3d074b53	0.03303082
211	0x3e0998e6	0.13437232
212	0xbdd14a35	-0.10219232
213	0x3dfdd9ac	0.12395033
214	0x3c7f3c67	0.015578366
215	0xbe5a2c08	-0.21305859
216	0x3dfef326	0.12448721
217	0xbcc444b1	-0.023958536
218	0x3d73085b	0.05933414
219	0x3d0f370e	0.034964614
220	0x3dd27add	0.102773406
221	0x3d5fa198	0.054597467
222	0x3d71d3b6	0.059039794
223	0xbdc308d8	-0.09523171
224	0x3e94e11d	0.29077998
225	0x3ea5d90a	0.3239215
226	0xbeaabfab	-0.33349356
227	0x3e7d7db4	0.24754983
228	0x3eaa24df	0.33231255
229	0x3ec269c3	0.37971315
230	0x3e279768	0.1636635
231	0xbe1cc4dd	-0.15309472
232	0xbe8bedfe	-0.2733001
233	0xbedb2456	-0.4280116
234	0x3e8645e0	0.26225185
235	0x3eb21816	0.34784
236	0xbeb2625f	-0.34840676
237	0x3eb7db8f	0.35909697
238	0x3e46475a	0.19363156
239	0x3e3d6e58	0.18499124
240	0xbe4d0841	-0.2002268
241	0xbe783579	-0.24239148
242	0x3d933892	0.07188524
243	0x3d5b1e5f	0.05349576
244	0xbe94f399	-0.290921
245	0xbe995d07	-0.29953787
246	0xbbd137d0	-0.006384827
247	0x3e7200e2	0.2363315
248	0x3c23dbb2	0.01000111
249	0x3e3f1a6d	0.18662424
250	0xbe1f712b	-0.15570514
251	0xbeabe28f	-0.33571288
252	0x3e45eb0c	0.19327945
253	0xbebd1726	-0.36931723
254	0xbe92b664	-0.28654778
255	0xbe97fac6	-0.29683512

fc1.bias f4 [16]
0	0x3e1d2770	0.15347075
1	0x3e1670d4	0.14691478
2	0xbe8dc779	-0.27691248
3	0x3e8707a8	0.2637303
4	0x3eb46eb6	0.35240716
5	0x3e5fcc09	0.21855177
6	0x3e0ff87a	0.1405963
7	0x3c6237d8	0.0138072595
8	0xbe3323e9	-0.17494167
9	0xbdba687e	-0.091019616
10	0x3e7e7e77	0.2485293
11	0x3dd5f1ff	0.10446548
12	0x3e676ff6	0.22601303
13	0xbe8eee5d	-0.27916232
14	0x3eb0d865	0.34540096
15	0x3da78356	0.08179347

fc2.weight f4 [1, 16]
0	0xbdebae34	-0.11507836
1	0x3e9c6604	0.30546582
2	0x3dd28ab4	0.10280362
3	0xbe9fa326	-0.3117916
4	0x3eaf7f6b	0.342769
5	0xbe1f9a40	-0.15586185
6	0xbeaa9036	-0.3331315
7	0xbe474048	-0.19458115
8	0x3e07922d	0.13239355
9	0x3ef0adbd	0.47007552
10	0xbe69381b	-0.22775309
11	0xbe49de48	-0.197137
12	0xbdda5fe8	-0.10662824
13	0x3d87dcc2	0.06633903
14	0x3eced5dd	0.4039754
15	0xbe999f98	-0.30004573
