model.pth (torch, 11272 bytes, 13 tensors)

rg_rnn.rgrnn_cell.i2h.weight f4 [16, 12]
000000 65 d8 88 3d c1 77 60 3e 87 c6 70 bc 3f 43 2b 3d
       0.06681899 0.21920682 -0.01469577 0.041812178
000010 08 ae 17 3d b2 a0 1a 3d b9 3a b3 3d e7 3f ec bc
       0.037031204 0.037750907 0.08751435 -0.028839065
000020 5e 25 5c be 5c 96 52 be be 92 5a 3e ab 8e 70 bc
       -0.2149863 -0.2056517 0.2134504 -0.014682452
000030 df 00 07 bd 0c a8 a5 3e 99 f0 f8 3d 29 5f 6a 3e
       -0.032959815 0.32354772 0.12155265 0.22887863
000040 e2 ee c4 bd 8d 3c b7 3d 39 b8 d5 3d b9 c9 02 be
       -0.09615876 0.08947096 0.10435528 -0.12772264
000050 2d 45 51 3d 59 1b 8a 3c 1d df 6f bc 98 09 4d 3c
       0.05109136 0.016858744 -0.014640597 0.012514494
000060 97 35 a0 3d d5 c0 73 3e 57 63 c4 3d 43 19 61 3e
       0.078227215 0.23804028 0.0958926 0.21982293
000070 5a 2b 4b be 5f 6b 8d bc 15 74 26 3d b2 20 17 3a
       -0.19840756 -0.017263113 0.04063805 0.0005765065
000080 e5 c7 88 be f0 1c b0 3d 25 64 a4 bd d0 bc 61 bb
       -0.26715007 0.085992694 -0.080269136 -0.0034444816
000090 20 d1 a9 3d 80 66 56 be a2 0f 13 3d ab c7 01 3e
       0.082918406 -0.20937538 0.03590358 0.12673824
0000a0 11 62 86 bd 19 69 93 3d 55 9e af 3d 5f ad 38 bd
       -0.065616734 0.0719778 0.08575121 -0.045087215
0000b0 c5 96 a7 be b9 33 bd 3d d4 9e bd bd d1 03 1c 3c
       -0.32732216 0.09238381 -0.0925881 0.009522394
0000c0 60 06 2e bb 2c aa a7 be e9 84 16 bd d9 07 04 be
       -0.0026554093 -0.32747018 -0.036747847 -0.12893619
0000d0 1f b7 52 be 2a df f0 bc 52 53 83 3e 18 62 8e bc
       -0.20577668 -0.029403288 0.25649506 -0.01738076
0000e0 9e bb ac 3c 2f 45 f1 3c 2a cc 03 bd 48 63 d9 bb
       0.021085557 0.029451935 -0.032177128 -0.0066341497
0000f0 e9 0e 9a bd 3e bd db bd 40 a1 ba 3d bd 66 50 be
       -0.07522375 -0.107294545 0.09112787 -0.20351692
000100 21 e0 bf bd a9 de bb 3d e2 91 ee 3d 2e f0 a0 bd
       -0.09368921 0.091733284 0.11648919 -0.07858311
000110 0c 14 a2 3e 03 9a 8c bd 11 5f 93 3d c6 8e ce 3a
       0.3165592 -0.06865313 0.07195867 0.0015759103
000120 2e ca ff 3c e6 9e 3b 3e 28 0d 3a 3e 9d 7b a2 bd
       0.031224336 0.18322334 0.18169081 -0.079337336
000130 0e 1d 3c be af 6d 73 3e 98 e1 56 3e 26 2c 07 be
       -0.18370458 0.2377231 0.20984495 -0.13200435
000140 e5 5a 22 be 76 ad ca bc 17 98 e5 3c 6a 13 06 bb
       -0.15854986 -0.024740916 0.028026624 -0.002045835
000150 15 d7 2d 3d 35 14 0e 3e df 2f ac 3c e7 e5 69 be
       0.042441446 0.13874896 0.02101892 -0.22841607
000160 8e 3b 27 3d 66 7f 57 3e e7 de a7 3b eb 64 94 3d
       0.04082828 0.21044692 0.0051230076 0.07245811
000170 f3 53 2e be b1 f7 d0 3d bd aa d5 bd b6 e9 7b b9
       -0.17024212 0.102034934 -0.10432956 -0.0002402429
000180 b4 25 b3 3a d9 33 ac 3e c3 ac 5f 3d 47 62 7b 3b
       0.0013667853 0.33633307 0.054608118 0.0038358138
000190 80 36 72 be ab 67 07 3e 66 54 1d 3e 8a 64 18 3e
       -0.23653603 0.1322314 0.15364227 0.14882103
0001a0 3b fa b8 3d ec 53 7b bd f3 c9 a5 3d 46 db 4e bc
       0.09032103 -0.06135933 0.080951594 -0.012625521
0001b0 ef 1d e5 3c fe ed 03 be 19 59 41 3d 1f 28 41 bd
       0.027968375 -0.12883756 0.04720411 -0.047157403
0001c0 90 e9 0f be 11 ab c6 ba 71 0d fe bb 98 12 ae 3d
       -0.14053941 -0.0015157183 -0.007753067 0.0849964
0001d0 85 f0 24 bd 04 09 b1 3c 51 f7 a1 bc f4 dc 96 3b
       -0.04026844 0.021610744 -0.01977125 0.0046039764
0001e0 1d bd 21 3c dc e1 d3 bd 81 99 4b bd db 40 12 3a
       0.009871748 -0.10345814 -0.04970694 0.0005579122
0001f0 da 3e 2f 3e 9e 14 45 3d 09 4f 8d be e3 7e 6b 3e
       0.1711382 0.048115365 -0.27599362 0.22997622
000200 c6 b9 e1 bd fe b3 29 bd e6 89 0b 3d aa e7 37 3b
       -0.110217616 -0.04143142 0.034067057 0.0028061667
000210 54 ac 47 3d 70 50 1b bd 8c fc 13 3e ea 8f 4c 3d
       0.04874833 -0.037918508 0.14451808 0.049941935
000220 b4 3e 40 be 22 7a 97 bc aa 3d 78 bd 48 07 8f bb
       -0.1877392 -0.018490855 -0.060605682 -0.0043648817
000230 cf 3b 28 be b6 cc b9 3d 36 ed c8 bd 5c 80 ae 3b
       -0.16429065 0.09072249 -0.098108694 0.00532536
000240 04 9c 9c bc 4c 3c 8c bd d4 95 ca 3d 09 e3 01 be
       -0.019117363 -0.06847438 0.09891859 -0.12684263
000250 8d 68 c4 3c 89 cb 9c 3d 73 03 0b be 56 49 d6 3d
       0.023975635 0.07656009 -0.13575535 0.104632065
000260 e2 c5 f2 3c 38 a9 23 be 9a 0a 38 3e a8 b2 22 3c
       0.029635374 -0.1598252 0.17972794 0.00993029
000270 97 cc 23 bd 1b 50 9c bd 3d 3c fb 3d dc 5f 00 be
       -0.039990034 -0.076324664 0.12267349 -0.12536567
000280 00 dc 73 be 57 6a b4 3d 6f f9 cf bd 40 6e fc 3b
       -0.23814392 0.08809345 -0.101549976 0.0077035725
000290 1d 9a 0c 3e ce dc 3d 3d ef aa 6e bd a0 8e ef bc
       0.13730665 0.046353154 -0.058268484 -0.029242814
0002a0 af 9f c0 3c fd a1 8c 39 b8 51 38 be 6c d5 9a bc
       0.023513643 0.00026823572 -0.17999923 -0.018900596
0002b0 e6 b7 e6 3c 47 cb 3b bd 97 6a a7 3d 4c b9 23 3e
       0.028163861 -0.045848157 0.08174627 0.15988654
0002c0 6b ab 0b bd ae 05 ac bd ff 6d 91 3d 27 cd e0 bc
       -0.034099024 -0.08399521 0.07101058 -0.027441574
0002d0 53 0f cf 3c fb 35 a0 3d 10 49 ab bd d2 a7 4f bd
       0.025275862 0.07822796 -0.08363545 -0.050697155
0002e0 17 07 cf bd 24 e3 91 3d 5f e4 40 3e c1 d4 01 3e
       -0.10108774 0.07123402 0.18837117 0.12678815
0002f0 b5 53 96 bd e6 6d 6c 3b 88 ce 08 bc a4 4d c3 bb
       -0.073401846 0.0036076247 -0.008350022 -0.005960183

rg_rnn.rgrnn_cell.i2h.bias f4 [16]
000000 e7 54 7b 3d 69 6d 4d 3d 7e 5f 94 bd a2 99 1a 3d
       0.061360266 0.05015317 -0.07244776 0.037744172
000010 3a 69 01 3e 1b 77 ea bd 80 68 2b 3d 8c 69 6a bd
       0.12637797 -0.11448499 0.041847706 -0.057229564
000020 c8 d7 20 bd b0 54 23 3e 60 e3 38 bd f4 fa 55 3c
       -0.039268285 0.15950274 -0.045138717 0.01306032
000030 7f 51 fa bd b4 d9 6e be 1d 00 1e 3e 97 d7 12 bd
       -0.122225754 -0.23325235 0.1542973 -0.035850134

rg_rnn.rgrnn_cell.h2h.weight f4 [16, 16]
000000 c4 2a 8a 3d 28 9f 06 be 0b d7 6f 3e b4 85 64 3d
       0.06746438 -0.13146651 0.23421876 0.05579157
000010 05 eb 40 3e 5c 38 58 3d 23 da 0c be 25 00 ee bd
       0.18839653 0.052788123 -0.13755088 -0.11621121
000020 90 dd a7 bd fd 94 30 3e 73 9c 7d bd 8e 17 d2 3d
       -0.081965566 0.17244335 -0.06191678 0.10258399
000030 6a 8d 59 3e ee 7b 85 3c 01 40 73 bd 44 60 75 3d
       0.21245351 0.016294446 -0.05938721 0.05990626
000040 cf 87 44 3e b9 48 ed bd 49 32 11 3d 5f 79 c6 bd
       0.19192432 -0.11586136 0.035448346 -0.096911184
000050 02 ba 49 3e 58 b9 b2 bd c6 38 b1 bd c2 8c c0 bd
       0.19699863 -0.08726758 -0.08653407 -0.094018474
000060 cc 2a 4c 3d 9e c5 21 bd a2 fd 60 bd 81 76 51 be
       0.0498455 -0.039495103 -0.054929383 -0.20455362
000070 ba b7 09 bd e7 6b b8 3b 8e da 8e 3d c5 8f 13 be
       -0.03362248 0.0056280973 0.0697528 -0.14410312
000080 be 59 ca bc 05 c4 17 be 8c b7 28 bc b4 ef b8 bd
       -0.024700996 -0.1482087 -0.010297667 -0.09030095
000090 72 9c 84 bd 4d be 94 bd 24 a1 10 be 42 2a 26 bd
       -0.06475152 -0.072628595 -0.1412397 -0.040567644
0000a0 e4 1a b7 bd ca e6 7b 3d da 8e 2a bd 18 f7 bb 3d
       -0.08940676 0.061499394 -0.04164014 0.09177989
0000b0 64 9b 90 bc d6 d6 e9 3c 84 8b 35 be 4f 6b 6f bd
       -0.017652221 0.028544825 -0.17729002 -0.058451947
0000c0 29 88 01 be a6 66 47 bd 5b 72 37 bc 4c 3b b1 bb
       -0.12649597 -0.048681878 -0.011196698 -0.00540868
0000d0 bf d8 bc bd 01 aa 82 bc 81 4a 9c 3d 8c cb df bd
       -0.092210285 -0.015950205 0.07631398 -0.10927495
0000e0 c2 ac 94 3d eb 05 71 bc 9e ec 76 3c 40 a4 db bd
       0.072595134 -0.014710884 0.015071062 -0.107246876
0000f0 bc 47 3d 3d f9 e2 82 3c e2 b3 ee 3d 07 98 64 bb
       0.04621099 0.01597737 0.11655404 -0.0034880654
000100 78 51 b1 3d b5 19 90 bb 4a 1c 56 bd d3 ea 62 3d
       0.08658117 -0.0043975958 -0.052273072 0.055399727
000110 7f d3 34 3d c6 dc e6 bd 56 9e 2f 3d 2a 49 f5 3d
       0.04414701 -0.11272578 0.04287561 0.119768456
000120 97 bc 25 3e 88 28 bc bc a9 f0 f3 3c 39 65 08 be
       0.16185223 -0.022968546 0.029777842 -0.13319863
000130 d0 62 fc bc e4 ea de 3c 7f b0 a8 bd 66 5e fa 3d
       -0.030808836 0.027211614 -0.08236789 0.12225036
000140 e2 85 0e bd f3 53 db 3d 45 c3 11 3d 4e 03 5f 3e
       -0.03479565 0.107093714 0.035586614 0.21778604
000150 b6 8c 10 be 2a f8 ad bc 5b a2 80 bd 43 f4 d2 3d
       -0.14116177 -0.021236498 -0.06280967 0.103004955
000160 f3 07 38 bd 63 f3 1e be 05 c3 13 3e 3e bb 53 be
       -0.044929456 -0.15522532 0.14429863 -0.20676896
000170 62 6f 44 3a 81 86 bf bd 40 d4 00 3e 78 93 29 3c
       0.0007493404 -0.093518265 0.12580967 0.010350101
000180 6e 20 86 bb 12 00 32 3d 4c 81 0d be ee 3a 22 be
       -0.0040932214 0.0434571 -0.13818854 -0.15842792
000190 b2 14 d2 3d 5d a4 0a be 12 e0 3a be 6e 55 c9 3d
       0.102578536 -0.13539262 -0.18249539 0.098307475
0001a0 88 25 0d 3e c2 dd 9d bd 18 a8 76 bd 17 62 b6 bd
       0.13783848 -0.077083126 -0.0602189 -0.08905428
0001b0 b1 30 f3 bc 56 01 e5 3c 1a 5c 35 bc 18 55 fb 3d
       -0.029686304 0.027954739 -0.011069322 0.1227209
0001c0 ab de 77 bd 61 1a c8 3d e3 99 40 be a7 66 9a 3d
       -0.060515087 0.097706564 -0.18808703 0.07539111
0001d0 7c fa ea bc c3 08 72 bd df f7 29 3d e8 de 32 3d
       -0.028683893 -0.059090387 0.041496154 0.04366961
0001e0 82 aa e9 3d a3 ec 51 3d a6 2b 87 bc f1 88 bd 3d
       0.11409475 0.051251065 -0.016500305 0.09254635
0001f0 ed 71 4d bd 54 80 c2 bc 88 80 09 be 9e 59 39 be
       -0.050157476 -0.023742832 -0.13427937 -0.18100592
000200 34 89 a7 3d 74 20 5a 3d 9f 62 e8 3d 5d 8d 0a bd
       0.08180466 0.053253606 0.113469355 -0.03382622
000210 b3 e8 81 bd 67 b1 39 3d 0b cc 3b bd c5 2e da bc
       -0.06343212 0.0453352 -0.045848887 -0.02663363
000220 d5 17 bc bd 3e c8 91 bd 5f 09 33 bd 90 96 17 3e
       -0.09184233 -0.07118271 -0.04371011 0.14803529
000230 2b f0 35 bb 57 ee ac bd 0d fd 05 be b7 fb 08 3d
       -0.002776156 -0.08443897 -0.13084812 0.03344318
000240 3b 45 0c be 77 28 1f be bf ed 02 3c 09 15 83 bd
       -0.13698284 -0.1554278 0.007991253 -0.064004965
000250 b6 77 96 bd 42 c6 c9 bd 4b 17 fb bc 6b 22 95 bb
       -0.07347052 -0.09852268 -0.030650755 -0.004551222
000260 ca 07 89 3d 6b ba 12 bd d6 2b b2 3d 47 0b e4 3d
       0.06690939 -0.035822313 0.08699767 0.111349635
000270 df 09 2c 3d de 67 51 3d 77 7d fc bc 99 8e bb bd
       0.0420016 0.051124446 -0.030821545 -0.09158058
000280 dc 65 de 3c 20 4f d8 3c 50 b0 e1 bd 1f 8d 71 3e
       0.02714818 0.026404917 -0.11019957 0.2358899
000290 ee c5 09 bd 1e 4d fb bd a2 e9 51 bd 7b 45 c4 bc
       -0.033636026 -0.12270568 -0.0512482 -0.023958912
0002a0 18 1f 33 3e 15 8c 37 be ce 3b 4e 3d b8 7d e6 3b
       0.1749233 -0.17924531 0.050350003 0.00703403
0002b0 a9 82 8b bb 1c e8 7a bc 1a 40 c2 bc e4 91 7d 3c
       -0.0042575193 -0.015314128 -0.023712207 0.015476678
0002c0 52 11 1a bd 31 dc 48 3d 8c 0a 33 be 6f 60 8e bd
       -0.037614174 0.049038116 -0.17484492 -0.06951987
0002d0 b4 57 c0 bc bc 9a 6a bd 13 3f bc bd 0e c8 41 be
       -0.02347932 -0.057276472 -0.09191718 -0.18923971
0002e0 d9 e7 ee 3c b3 5d c3 3d 24 c3 94 bd ab 89 cb 3c
       0.029163288 0.09539356 -0.072637826 0.024845919
0002f0 cf e7 b6 3d 43 d9 a9 3d 65 e9 27 3d bf ad 0d bd
       0.08930933 0.082933925 0.040994067 -0.034589525
000300 e3 95 f5 bd 39 40 fb 3d f0 45 ca bd 8c 66 e6 3d
       -0.11991479 0.12268109 -0.09876621 0.11250028
000310 10 0c 62 3e 43 6b 8d bd 9d e1 53 be 71 f1 cf bd
       0.22074914 -0.06905224 -0.20691533 -0.10153473
000320 3c cd c2 3d 36 07 8b bb c8 02 2a be 6a 37 57 3e
       0.095118016 -0.004242803 -0.16602623 0.21017233
000330 d1 58 e5 bd f6 b8 6d 3d d4 26 02 be 76 d9 10 3c
       -0.11198581 0.05803772 -0.12710124 0.008840909
000340 51 63 4d 3d 58 d0 63 bc c5 23 be 3d 76 92 c3 bd
       0.050143544 -0.0139046535 0.09284166 -0.095494196
000350 a9 5e cb 3d f6 a6 16 3e a9 e5 ac bd 2f 5a ed bc
       0.09930164 0.14712128 -0.08442242 -0.028973667
000360 ad cc c1 3d 42 93 95 3d d8 6f b2 3d da f0 53 be
       0.09462867 0.07303478 0.08712739 -0.20697346
000370 ad b6 6a bd e6 37 81 be f1 53 4e bd ab 28 fd bd
       -0.05730312 -0.2523796 -0.05037302 -0.123612724
000380 a9 1d 14 3d fc fd 0e 3e 5b bb 44 3e d8 5c 3c 3d
       0.0361611 0.13964075 0.19212095 0.04598698
000390 01 de da bd ae 20 86 bd db 1d 11 3e d3 c4 de bd
       -0.10686875 -0.06549202 0.14171545 -0.10877385
0003a0 a9 81 8c 3d d3 a7 13 3e d9 89 0c 3e 26 a7 94 bd
       0.06860668 0.14419489 0.1372446 -0.072584435
0003b0 e4 92 2b 3e ba bd 1f 3e 53 63 48 bd 5a 59 3f 3d
       0.16755253 0.15599719 -0.048922848 0.04671607
0003c0 0d 15 40 3d 13 87 8b 3c 00 d8 78 bd 90 83 16 be
       0.046895076 0.017032182 -0.06075287 -0.14698625
0003d0 1d 97 78 bd fc 42 2b bd b1 03 8b bd 66 a6 2c 3e
       -0.060690988 -0.04181193 -0.067878135 0.16860351
0003e0 5d 4a 88 bd cb 60 27 3e 6f 14 88 bc df 4e e5 3d
       -0.06654809 0.16345517 -0.016611306 0.11196684
0003f0 cc 5a 0c bd 44 fa 07 3d ba 35 8a 3d f7 fe aa bd
       -0.03426628 0.033197656 0.06748529 -0.08349412

rg_rnn.rgrnn_cell.h2h.bias f4 [16]
000000 81 08 34 3d fb b1 94 3d 00 bf 17 3e d9 98 91 bc
       0.043953422 0.072605096 0.14818954 -0.017773079
000010 9b fc 4f be 4b 65 e8 bc d4 d7 0f 3d 9e cf fd 3d
       -0.20311205 -0.028368613 0.03511794 0.123931155
000020 f1 d0 3e 3d 54 ab 58 be 3a 15 f0 3d 8f 4f 29 bb
       0.04658598 -0.21159106 0.11722799 -0.0025834774
000030 e9 a5 0b 3e 40 1f 33 be 06 1b c3 bd 4e 0a 69 3d
       0.13637508 -0.1749239 -0.09526639 0.056894593

rg_rnn.rgrnn_cell.h2i.weight f4 [12, 16]
000000 0c d6 0d be be f8 7b 3e 3c b6 45 3e c8 67 8e 3d
       -0.13851184 0.24606606 0.19307798 0.069533885
000010 36 4f 2c be b0 1d 59 3d fa d9 3e be 40 27 75 bc
       -0.16827092 0.053006828 -0.18637839 -0.014962971
000020 08 2b ab 3d 60 1d 50 3d c0 b4 fe 3c 5c 32 e6 bd
       0.08357817 0.050809264 0.031092048 -0.11240074
000030 ca 23 78 3e d0 63 aa 3d 8a 4a 76 be 2a bd 09 3e
       0.24232402 0.08319819 -0.24051872 0.13451067
000040 d8 a6 73 bd 94 33 d2 3d 98 53 23 3d 9a 71 0d be
       -0.059485286 0.10263744 0.039874643 -0.13812867
000050 7e 32 0d be a2 06 35 be a0 b7 00 3c 8e 58 0c 3e
       -0.13788792 -0.17678311 0.00785628 0.13705656
000060 bc cc 77 3e 56 a1 14 be b0 8e 60 3e 7c 6f ea 3d
       0.24199194 -0.1451467 0.21929431 0.11447045
000070 f8 58 a8 bd 80 e4 56 be 42 df 14 be 00 3f d2 ba
       -0.082200944 -0.20985603 -0.14538291 -0.0016040504
000080 60 16 d8 3c fa 39 76 3e 34 9f 10 be b4 ce de bd
       0.026377857 0.24045554 -0.14123231 -0.10879269
000090 e6 af 4d be 20 c9 94 bc 00 a4 b9 3d 2c 05 ef 3d
       -0.20086631 -0.01816231 0.09064484 0.11670908
0000a0 68 22 65 3e 08 39 ad bd c4 26 21 be 48 25 77 3d
       0.22376406 -0.084581435 -0.15737444 0.06033829
0000b0 12 8e 75 3e d8 e9 45 be c0 8a 37 3c 3c 8f b8 3d
       0.23979977 -0.19327486 0.011202514 0.09011695
0000c0 c0 69 88 3b 40 5a 46 3e 9c 11 4e 3e f2 b2 33 3e
       0.004162997 0.19370365 0.20123905 0.17548731
0000d0 06 2f 15 3e 6a 58 42 3e d2 82 79 3e 0c 9b 19 3e
       0.1456872 0.1897904 0.2436631 0.15000552
0000e0 ac b7 f7 bd ba 6d 03 3e f2 ca 4e be 28 7f 66 3e
       -0.120955795 0.12834826 -0.20194605 0.22509444
0000f0 cc 0f 0a 3e 4c a1 43 3e 32 41 51 be c8 e1 5a bd
       0.13482589 0.19104499 -0.20435026 -0.053437978
000100 d2 ea 6f 3e e8 ea 6e be 4c 60 72 3e 00 73 b5 3b
       0.2342942 -0.23331797 0.23669547 0.0055373907
000110 a2 a3 13 3e c8 2b 4c bd 78 28 5a be bc a8 fa bd
       0.1441789 -0.04984644 -0.213045 -0.12239215
000120 f0 9f c0 bd 74 9c 5a be 18 e5 e9 3d 24 b6 fc bd
       -0.09405506 -0.21348745 0.11420649 -0.12339428
000130 c0 4e 52 3d 16 53 42 be 68 b2 0e 3e a4 5a e9 3d
       0.051344633 -0.18977007 0.13935244 0.113942415
000140 74 63 1e be 9a 56 39 3e 26 ed 02 be 5e e9 67 3e
       -0.15467626 0.18099442 -0.12785777 0.22647616
000150 90 cb b5 bc c0 df 3c bd b8 f0 a2 bd 68 8e 38 be
       -0.022191793 -0.046111822 -0.0795607 -0.18023074
000160 18 3d 44 bd 5c 8d c4 3d da 23 46 be dc eb 31 be
       -0.047909826 0.09597275 -0.19349614 -0.1737513
000170 a8 25 4d be 4c 1d 66 be a2 fb 42 be b0 77 15 3e
       -0.20033896 -0.22472113 -0.19041303 0.14596438
000180 6c 01 39 be b0 5b e7 3d 3a 43 6f 3e 74 1a 22 be
       -0.18066949 0.11296785 0.23365489 -0.15830404
000190 48 78 7b 3e 80 f9 ca 3c be bc 00 3e 42 f5 68 3e
       0.24557602 0.024777174 0.12572 0.22749808
0001a0 bc 1a 7b 3e c4 11 81 bd c0 21 90 3d 1a 8f 69 3e
       0.24521917 -0.06302217 0.07037687 0.22808495
0001b0 54 dc 14 3e e0 19 05 bc dc 9d 88 3d 18 7e ed 3d
       0.14537174 -0.008123845 0.06670734 0.11596316
0001c0 5a 48 20 3e 94 7f ce 3d e6 f2 22 3e e4 d1 a7 bd
       0.156526 0.10082927 0.15912971 -0.0819433
0001d0 64 40 23 be 48 15 a0 bd 00 91 83 bc ac ee 10 be
       -0.15942532 -0.07816559 -0.016060352 -0.14153546
0001e0 60 ab 54 3c 5c 3c 2f be 46 37 55 be fc 9f 2a be
       0.012980312 -0.17112869 -0.20821866 -0.16662592
0001f0 68 e3 fe 3d 78 5b ab 3d c8 d9 4a bd 70 a5 64 3e
       0.12445718 0.08367056 -0.0495241 0.22328734
000200 2a 1c 10 3e dc 19 b3 3d 0c a3 78 be e0 04 23 be
       0.14073244 0.08745167 -0.24280947 -0.15919828
000210 ec 04 45 3e 78 7f 76 be 4c aa a5 3d 30 8b ab 3c
       0.19240159 -0.24072063 0.08089122 0.020940393
000220 66 63 48 be 48 87 09 3e 40 46 23 3d 54 6a e9 3d
       -0.19569167 0.13430512 0.039861917 0.113972336
000230 c4 c7 b8 3d d2 18 38 be f2 bb 7d be 00 3e 4f 3a
       0.09022477 -0.17978218 -0.24778727 0.0007905662
000240 f0 6f 58 3e c8 1d 30 3e e8 69 13 3d 9a e7 57 be
       0.21136451 0.1719886 0.035989672 -0.21084443
000250 96 e8 23 3e 7c fe d4 bd 00 1e 94 3c 14 38 f1 3d
       0.16006693 -0.104001015 0.018080711 0.11778274
000260 88 60 3e be c4 6d 1d be 90 e2 09 3d 78 ff 3c bd
       -0.18591511 -0.15373904 0.033663332 -0.04614207
000270 d2 f2 31 3e b8 c8 98 bd 9c 60 88 bd 5a 19 71 3e
       0.17377785 -0.07460159 -0.06659052 0.23544827
000280 ec 83 bd bd c4 47 54 3e 44 c5 0a 3e f0 69 77 3e
       -0.09253678 0.20730501 0.13551813 0.24161506
000290 b8 fa 42 3e 3c 63 c1 bd b0 8a b1 bd 18 4c bb bd
       0.19040954 -0.094427556 -0.08669031 -0.09145373
0002a0 00 90 3c 3e 38 d0 e4 3d 58 ba 62 bd e0 b6 31 be
       0.18414307 0.11172527 -0.055353492 -0.17354918
0002b0 52 26 70 be 6a c4 06 3e 0c d9 7a 3e 94 28 ce bd
       -0.23452118 0.13160864 0.2449686 -0.100663334
0002c0 32 c7 33 3e b6 03 37 be 26 fd 15 be 14 46 91 3d
       0.17556456 -0.1787251 -0.1464735 0.070934445
0002d0 a0 94 d8 3c e8 95 e0 bd 2c 6c 53 be 1c 11 9f 3d
       0.026438057 -0.10966092 -0.20646733 0.07766935
0002e0 5c dc 4d be 1a 5a 52 3e 7c 3a 46 be a2 a0 7c 3e
       -0.20103592 0.20542184 -0.19358248 0.24670652
0002f0 58 09 a0 3d fe 95 52 be 36 a7 3b be b8 56 c4 bd
       0.07814282 -0.2056503 -0.18325505 -0.09586853

rg_rnn.rgrnn_cell.h2i.bias f4 [12]
000000 6c e8 42 3e 84 ed 7a be f8 d6 7a 3e dc dd 96 3d
       0.19033974 -0.24504668 0.24496067 0.07366535
000010 8c 23 76 be e2 5b 79 be 40 f8 c4 3b 32 01 7e 3e
       -0.24036998 -0.24351457 0.006011039 0.24805143
000020 9e 6b 0e be 74 de 0d be b8 83 21 bd 7c 88 63 3e
       -0.1390824 -0.1385439 -0.039432257 0.22220033

rg_rnn.rgrnn_cell.forget_gate.weight f4 [16, 28]
000000 7a fb bf 39 45 2f cb 3d e9 03 f2 bd f1 59 09 bc
       0.00036617724 0.09921125 -0.11817152 -0.00838326
000010 db 40 32 3d 95 d7 01 be 78 db c3 bd 1b 6d 75 3d
       0.043518882 -0.12679894 -0.09563345 0.059918504
000020 06 35 72 bd cf 2e b7 ba c5 91 29 be ab e9 69 39
       -0.0591326 -0.0013975742 -0.16559513 0.0002230766
000030 66 ed 7c bd f3 17 0e be 27 2d 86 3d 92 46 33 3e
       -0.06174984 -0.13876323 0.06551581 0.17507389
000040 38 c5 7b bd 8d 9a 2a ba d5 34 d7 bd 5c d4 ef 3d
       -0.06146738 -0.0006508015 -0.10508124 0.11710426
000050 79 01 19 be 31 e3 25 be 96 46 19 be 29 13 ef 3d
       -0.14941968 -0.16199948 -0.14968333 0.116735764
000060 a4 27 ff bd ff 0b 0e be f9 47 3d be 90 98 06 3c
       -0.12458733 -0.13871764 -0.18484487 0.008215085
000070 15 6b 04 3e 9d 5c df bd a9 0b f9 bd bd 31 3f 3d
       0.12931474 -0.109063365 -0.12160427 0.046678293
000080 22 f7 28 be 09 72 14 3e 29 14 16 3e a3 36 a3 bd
       -0.16500524 0.14496626 0.14656128 -0.079694055
000090 30 97 04 3e d5 27 3f be 68 19 ca bd 81 d3 af 3c
       0.12948298 -0.18667538 -0.09868127 0.021463158
0000a0 62 08 8b bd be 53 e0 bd 33 b8 cb 3c 4e a1 90 3c
       -0.06788708 -0.109534726 0.024868106 0.017655041
0000b0 8c 3c ca bd 02 08 e0 3d 4d b9 30 be da 74 76 bd
       -0.0987483 0.10939027 -0.17258187 -0.060170032
0000c0 4d 69 df 3d 52 99 81 3d 5c 33 3f be 9f 0d 18 3e
       0.109087564 0.06328072 -0.18671936 0.14848946
0000d0 98 64 26 3a b8 e2 26 3e 61 ef 02 3e 22 5f 36 3e
       0.0006347387 0.16297424 0.12786628 0.17809728
0000e0 27 60 81 bd 18 67 fb bd da 9f 04 3e fc d0 30 3e
       -0.06317168 -0.12275523 0.12951604 0.17267221
0000f0 8f 1e 0f be b7 0a 77 bd ed 19 4b 3d f5 2a b6 bc
       -0.13976501 -0.060312953 0.04958527 -0.02223728
000100 b5 39 a0 3d ed d4 fd bc 60 20 02 3e 83 58 2c 3e
       0.07823507 -0.03098532 0.12707663 0.1683064
000110 27 f4 21 bc 55 7b b6 bd 30 d1 a0 3d 3c 02 d2 3c
       -0.009884871 -0.089102425 0.07852399 0.025635831
000120 8e 95 a0 bd bd 01 f7 bd 89 ae 40 3e 25 3a b1 bc
       -0.07841025 -0.120608784 0.1881658 -0.02163417
000130 63 55 56 3d 49 3a 27 be c6 bd c5 bc c3 a6 23 3d
       0.052327525 -0.16330828 -0.024138343 0.03995396
000140 87 16 ef bd 1b 65 af 3d ad cf 14 3e 4f ad 4c 3c
       -0.116742186 0.08564206 0.14532347 0.012492492
000150 a8 a8 eb bc 4c 8a b4 bc 4a 85 93 bd 13 cf 2f 3e
       -0.028766945 -0.022038601 -0.07203157 0.17168836
000160 43 a7 78 3d 35 1b 27 3e ae e1 b4 bd 7d 21 ec bd
       0.06070639 0.16318972 -0.088321075 -0.11529825
000170 af a3 e0 bd 52 1b 34 be 81 3c 83 3b 53 c8 e0 bd
       -0.1096872 -0.17588547 0.0040050154 -0.10975709
000180 26 31 48 bc cc 84 c7 bb 09 5d 95 bd 67 fc 25 be
       -0.012218749 -0.0060888287 -0.07293136 -0.16209565
000190 91 87 12 3e b0 31 10 be 6e 1c c3 bd b7 b5 92 bd
       0.14309527 -0.14081454 -0.09526907 -0.071635656
0001a0 0a 54 17 be 65 36 f2 3c 0b a6 32 be 04 9c 54 bb
       -0.14778152 0.029566953 -0.17446153 -0.0032441625
0001b0 b2 7d cd bd a8 7d 01 be 81 70 0d be 00 74 b5 3d
       -0.1003374 -0.1264559 -0.13812448 0.08860016
0001c0 cf 90 c6 3d 53 e2 3b be fd 88 03 3e 39 81 04 3e
       0.09695589 -0.18348055 0.12845226 0.1293992
0001d0 b1 22 e4 3c ea c6 1c bb 17 81 73 3d 6c fa 36 be
       0.027848573 -0.0023922273 0.05944928 -0.17868966
0001e0 5b f2 9f 3c 92 bd 9e bd 14 a3 a3 3d f8 d8 22 3e
       0.019524744 -0.077510014 0.07990089 0.1590308
0001f0 04 77 ff 3d 06 79 27 3e 7f ad 4f bd a9 f2 0b be
       0.12473872 0.1635476 -0.05070257 -0.13666786
000200 47 bd e0 3d 47 b3 0c 3e 44 73 95 bd ba a2 d8 ba
       0.10973602 0.13740264 -0.07297376 -0.0016527988
000210 ff 1c dc 3d b8 39 a9 3b c5 5d 1b bc 2b da e1 3d
       0.10747718 0.0051643513 -0.009482806 0.1102794
000220 92 4c 17 be fe f8 01 3e 9d 2c ea 3c 0a 19 c7 bd
       -0.14775303 0.12692639 0.028585726 -0.09721573
000230 79 e3 30 bd 0a ab 28 bb 8a 78 16 be 60 ad 02 3d
       -0.043185685 -0.0025736713 -0.1469442 0.031903625
000240 c5 a6 30 3e 90 b4 5d bd 3c 6a 28 be 93 40 57 3b
       0.17251118 -0.054127276 -0.16446775 0.0032844886
000250 ef 6e de 3d 7f d7 06 3d cc 54 63 bd a0 e8 a7 3c
       0.10861003 0.032920357 -0.05550079 0.020496666
000260 8b 7a 69 bb 0b 32 2e 3e bd a0 10 3e 90 c6 66 bd
       -0.003562602 0.17011277 0.14123817 -0.056341708
000270 be 8e 7e 3c a4 2b 8d bc 3c 83 3d bc 9e 07 a9 3d
       0.015536962 -0.017232724 -0.011566933 0.08253406
000280 72 77 2c be 24 1f 39 be 11 e2 1b be 9c 32 1f 3d
       -0.1684244 -0.18078285 -0.15222956 0.038866624
000290 b6 19 84 bd 8f 51 44 3d 1e 6e 3e bd 4b ce 86 bd
       -0.064502165 0.047929343 -0.046491735 -0.06582316
0002a0 cd ba ed 3d a8 26 15 be 46 c6 21 3e df 3a e4 3d
       0.11607895 -0.14565527 0.15798292 0.11144041
0002b0 7b 6f 1f 3e b8 2d 2d 3d 95 9b 2d 3e dc 3a f1 3b
       0.1556987 0.04227993 0.16953881 0.007361753
0002c0 1a 4d 1f 3e 27 12 ad bd 84 2c c5 bd a7 c6 10 be
       0.15556756 -0.08450728 -0.09627631 -0.1413828
0002d0 c6 88 22 3e 62 27 0a be ed e4 12 be 78 70 05 3e
       0.15872487 -0.13491586 -0.14345141 0.13031185
0002e0 43 f4 21 3e 39 33 1b bd 5e 4f 0b be b6 84 2c be
       0.15815835 -0.037890647 -0.13604495 -0.168475
0002f0 95 1b 25 3e 7a 4f 41 3d ce bd 84 bd 09 60 90 bd
       0.16123803 0.047194935 -0.06481515 -0.07049567
000300 eb 0e bb 3c 5c 18 27 be 24 57 95 bd 4e e5 a0 bd
       0.022834262 -0.16317886 -0.072920114 -0.078562364
000310 a1 63 46 bd 81 2e fa 3c 99 c1 25 3e 54 ce 14 be
       -0.048434857 0.030539753 0.16187133 -0.14531833
000320 5b 69 b6 3d 9d a6 ec 3d 8a c5 22 be 05 a8 df 3d
       0.08906814 0.115552165 -0.15895668 0.10920719
000330 f6 ea 19 3e a5 f9 a5 3d 96 17 b9 bd 1e 80 4a bd
       0.15031037 0.081042565 -0.09037702 -0.04943859
000340 57 b8 27 3e e0 96 24 be 57 53 a3 3d 77 21 7c bc
       0.16378914 -0.16073179 0.0797488 -0.015388838
000350 ef 35 de bd 43 9b 0a be 10 dd ed bd 25 2e 1f be
       -0.10850131 -0.1353579 -0.1161443 -0.15544946
000360 bb 26 3f 3d 7a 62 29 be 89 cf ab 3c ae 56 0f 3c
       0.046667796 -0.16541472 0.020972984 0.008748693
000370 c1 2f ca 3d ec 51 1f be 06 53 d8 bc d7 a1 d3 3d
       0.098723896 -0.15558594 -0.026406776 0.10333603
000380 98 ad 14 be 37 a4 08 3e 0b 90 17 be 3e 4c 31 3e
       -0.14519346 0.13343893 -0.14801042 0.1731424
000390 7e 04 3c be f1 7a 02 3d a6 51 8c bd 63 b8 b1 bc
       -0.18361089 0.031855527 -0.06851511 -0.021694368
0003a0 af 10 81 bd 13 80 ef 3d e3 6a 2b be 46 b2 2c be
       -0.0630201 0.1169435 -0.16739993 -0.16864881
0003b0 e4 90 34 3d 68 61 38 3e b2 8e 1f be ba 5e d7 bd
       0.04408349 0.18005908 -0.15581778 -0.105161145
0003c0 c9 f8 55 3d 2f c0 bd bc f3 63 db bd 09 82 f8 bd
       0.052239213 -0.02316293 -0.10712423 -0.12134177
0003d0 26 ca 23 be d1 00 d6 3c 11 72 25 be 1a b8 0f 3c
       -0.15995082 0.026123436 -0.16156794 0.008771921
0003e0 72 15 02 be 5d e8 18 bd ef c1 63 bb ce 46 0a 3d
       -0.12703493 -0.037330974 -0.0034753045 0.03375893
0003f0 2e ae 85 bd 6f b8 d3 3d ea 6d 35 be 96 89 03 3e
       -0.06527363 0.10337912 -0.1771771 0.12845454

rg_rnn.rgrnn_cell.forget_gate.bias f4 [16]
000000 98 0d 45 3c 24 2f 01 be 0c 80 b9 3d 7c 57 1d 3e
       0.012027167 -0.12615639 0.09057626 0.15365404
000010 79 85 f2 3d e2 00 13 bd 94 9d 6b bd 81 ea 0c 3e
       0.11841864 -0.035889514 -0.057523325 0.13761331
000020 3e 19 60 bd de d6 06 3e db 52 1f 3d 56 7f 12 3c
       -0.054711573 0.13167903 0.038897377 0.008941492
000030 5c 9b 40 be aa 69 ae 3d de 85 b4 3d 90 d2 c2 bd
       -0.18809265 0.085162476 0.08814596 -0.09512818

rg_rnn.fc.weight f4 [16, 16]
000000 b2 4b 53 3e a0 14 35 bd 17 3a fa 3e 75 fc 88 3e
       0.20634344 -0.044209123 0.48872444 0.2675511
000010 38 b6 c8 be 2d f4 d1 be 7b 7d 1b 3e a2 59 06 3e
       -0.39201522 -0.41006604 0.15184586 0.1312013
000020 cb 85 1e 3e 13 a3 b9 be 31 35 8f 3e 0e 3d 64 bd
       0.15480725 -0.36257228 0.2797027 -0.05572229
000030 12 32 6f be 4c 55 52 be 56 9f a5 3e c1 74 ef 3d
       -0.23358944 -0.2054035 0.32348126 0.11692191
000040 af 1a 81 3e d3 62 97 3e 42 f2 9e 3d 74 8a 03 3e
       0.2521567 0.29567584 0.07761051 0.12845784
000050 dd 59 81 be 96 bc 00 be a3 58 86 3b 9d 58 a1 3e
       -0.25263873 -0.1257194 0.004099922 0.3151292
000060 43 01 b2 3e 56 4c a3 be 61 cf a1 3d 38 05 58 be
       0.34766588 -0.31894177 0.079008825 -0.21095741
000070 e1 41 cf 3b 30 9d 5c 3d 33 52 c0 3e 80 3a d6 3d
       0.006324992 0.053860843 0.37562713 0.10460377
000080 d2 02 cc bd 67 66 4a 3d a6 d5 88 3e c1 84 92 3d
       -0.099614754 0.049414065 0.267255 0.07154227
000090 da d7 83 3c 8f ad 04 be dc a9 d3 3e d1 d0 8f 3e
       0.016094137 -0.12956832 0.4134053 0.28089002
0000a0 96 d8 c0 3b f1 3e 7a bd 3c 0d 85 3d 76 d7 90 be
       0.005885194 -0.06109518 0.06496665 -0.28289384
0000b0 ca 57 02 be cb 41 b4 be b0 8d 49 3e 1e 1c ba 3e
       -0.12728801 -0.35206446 0.19682956 0.36349577
0000c0 b9 bb 64 be 0c 03 68 be 3e 6e 85 bd eb 05 f9 3c
       -0.22337236 -0.22657412 -0.06515168 0.03039833
0000d0 a6 f4 ac 3e be 62 dc 3e 67 93 b4 be 93 99 5b be
       0.33780402 0.43044084 -0.3526871 -0.21445303
0000e0 5c f8 23 be db 3e 8d 3e b2 4e 27 3d bb 17 8f bd
       -0.1601271 0.27587017 0.040846534 -0.06986948
0000f0 27 40 1c bd 5f 5c 9b 3e 18 c4 db bd fe 74 fc 3c
       -0.038147118 0.3034391 -0.10730761 0.030817505
000100 e6 f4 4b 3e f7 24 c8 3e af 25 6f 3e 9c 0e 86 3e
       0.1991764 0.39090702 0.23354219 0.2618302
000110 ad b4 d8 be 61 25 9c be 20 89 26 3d 17 9a c6 3e
       -0.42325345 -0.30497268 0.040658116 0.38789436
000120 3b 71 c1 3e e8 f3 b0 bb 3c d9 af 3e 42 fe 75 be
       0.377817 -0.0054001696 0.34345424 -0.24022773
000130 f7 d6 c0 3b ba 47 5b be 6c d8 03 bc 12 27 8c bb
       0.005885001 -0.2141408 -0.008047204 -0.0042771185
000140 22 2a b3 3e b5 28 3d 3e e8 c9 53 3d b6 91 ac bc
       0.34993082 0.1847256 0.051706225 -0.021065574
000150 9b 33 73 be d4 89 37 be f5 ca d1 3e 6c db 68 3e
       -0.23750155 -0.17923671 0.40975156 0.22739953
000160 f3 25 1b 3d 3e de a3 be 36 9c a3 3e ac 6d 69 3d
       0.037877988 -0.32005495 0.31955117 0.056989357
000170 8d 13 02 be c7 a1 a5 be e9 7f 07 be 86 ed a0 3e
       -0.1270277 -0.3234999 -0.13232388 0.31431216
000180 e3 81 5a be 1d 57 01 be ac 7a f3 bc 45 2d cb be
       -0.2133861 -0.12630887 -0.02972158 -0.39682975
000190 28 7b 7c 3e 79 ae d6 3e 4a 52 c1 be 9c b9 b4 bd
       0.24656355 0.41929987 -0.37758094 -0.08824465
0001a0 cf 3c 88 be 23 a1 04 3e 1b 0e 8b be a5 ae 53 3e
       -0.26608893 0.12952094 -0.271592 0.2067209
0001b0 69 0c 85 3e a5 63 ea bd 17 ce c8 3c 2c ef 9a be
       0.2598603 -0.11444787 0.024512334 -0.302606
0001c0 7e 4b 6e be 15 b1 18 be 8e 50 d1 be 3a 2a c6 be
       -0.23270985 -0.14911301 -0.4088177 -0.3870409
0001d0 39 72 ed 3d 6b f8 15 3e 9f c7 2a bd 8a 6f 6e be
       0.11594052 0.14645545 -0.04169428 -0.23284736
0001e0 0f a0 8e be 8f e2 8f 3d d4 8b 40 3e 18 d9 1e bd
       -0.2785649 0.070256345 0.1880334 -0.038781255
0001f0 e5 de 86 3b ec 87 27 be 2c a3 44 be ea 1d cf be
       0.0041159266 -0.16360444 -0.1920287 -0.4045251
000200 3c 89 16 3e d1 11 9c 3e f5 2c 9d 3e 44 9f ad 3e
       0.14700788 0.30482343 0.30698362 0.33910573
000210 9a 1d 84 be 5b 87 c2 be c1 78 f7 3c 60 ae ae 3e
       -0.25803834 -0.37993893 0.030208947 0.34117413
000220 fc e6 02 3c e6 c8 98 be 90 d1 8d 3e 8c fd 45 bd
       0.007989641 -0.29840773 0.27698946 -0.048337504
000230 5d de de bd 8b f1 8b be 21 1c b6 3e e5 fb 9a 3e
       -0.10882256 -0.2733272 0.35568336 0.30270305
000240 12 9c be 3d e3 ad 92 bc 87 1a 1f 3e d9 40 78 3c
       0.09307112 -0.017905181 0.15537463 0.01515218
000250 77 8f 64 be 49 df 7f be 3b d9 74 3e 99 dd ca bd
       -0.22320352 -0.2498752 0.23910992 -0.09905548
000260 80 a3 98 3e b4 6d 86 be 3e cd 9c 3e 5e 48 c1 be
       0.2981224 -0.26255572 0.30625337 -0.37750524
000270 a8 48 9d be 7d 24 ff 3d 7d e8 98 3e f9 30 93 3e
       -0.30719495 0.124581315 0.29864874 0.287483
000280 55 76 b9 3e 9b e1 75 3e 30 09 08 3e ed b2 a3 3e
       0.36223093 0.24011843 0.13284755 0.31972447
000290 e5 01 59 be bf 3f 29 be af a3 9e 3e 6f ac b3 3e
       -0.21192129 -0.16528223 0.30984256 0.35092494
0002a0 5a 55 ab 3e 5d a7 74 be 00 f0 6a 3e 4d 0a 97 be
       0.33463556 -0.23891969 0.22943115 -0.29500046
0002b0 de eb 87 be 11 bb 87 3d c3 29 58 bd c5 25 ab 3e
       -0.2654714 0.06627477 -0.052774202 0.33427253
0002c0 38 26 9d be 85 15 0d 3e 8c 08 31 be 69 6c a8 be
       -0.3069322 0.1377774 -0.17288417 -0.3289521
0002d0 ce a7 cc 3d 1b 8a 1d bd 79 ff d1 3d 08 8f 91 3d
       0.09992944 -0.038461786 0.10253806 0.07107359
0002e0 d6 12 ad be d4 09 be bb a3 31 02 bc a1 a0 cf 3e
       -0.33803433 -0.0057995114 -0.007946405 0.40552238
0002f0 81 d2 81 3e c0 64 0a bd 3f bc c6 bb f7 8e f2 bd
       0.25355914 -0.03378749 -0.006064921 -0.11843675
000300 47 6d 29 be 53 6d f0 bc 0f 00 d4 be 05 2b 0d be
       -0.16545592 -0.029349005 -0.41406295 -0.13785942
000310 55 f7 07 3e a3 5f 30 bd 17 b4 c2 be 3b e7 f1 bb
       0.13277943 -0.043059956 -0.38028023 -0.007382301
000320 0b 8f 60 3c cd 19 ba 3d a5 75 86 bc a3 3b 82 3e
       0.013705979 0.09086952 -0.01641352 0.25436124
000330 24 93 7f 3e d9 d6 8e 3e 23 1e 15 3d fe 53 70 bc
       0.24958473 0.2789829 0.036405694 -0.014668463
000340 6a 47 ff bb da d1 a9 3e 13 fa c4 3e 3c 4f 23 3c
       -0.0077904956 0.33167917 0.3847204 0.009967621
000350 39 8c b7 be 1b 38 5d be f7 75 83 3e 47 d0 67 3e
       -0.3584917 -0.21603434 0.25675938 0.22638045
000360 a6 08 19 3e 98 6f 52 be b5 c9 0c 3e 8e 39 b4 be
       0.14944705 -0.20550382 0.1374882 -0.3520016
000370 41 30 a1 bd ef 20 1d be 31 86 3f 3e df d2 88 3d
       -0.07870532 -0.15344594 0.18703534 0.066808455
000380 05 70 ac 3e 41 be 97 3e c9 f9 8e 3e c0 97 13 bb
       0.33679214 0.2963734 0.27924946 -0.002252087
000390 ba f5 91 be 2e c0 92 be ee 11 1e 3e 4d 27 8e 3e
       -0.28507787 -0.28662246 0.15436527 0.2776436
0003a0 a5 94 1f 3e 29 1d c9 be 49 f0 81 3e 6e c0 76 be
       0.15584047 -0.3928006 0.25378636 -0.24096844
0003b0 76 87 8e be 39 cf 67 be 79 47 ac 3e 46 8a 75 3e
       -0.27837723 -0.22637643 0.3364828 0.23978528
0003c0 d4 24 a9 3e 72 41 41 3e 3a 36 51 3e 54 7c ab 3e
       0.3303591 0.18872622 0.20430842 0.33493292
0003d0 66 e5 1f be a4 2b 35 be cb ad 1d 3e ee 03 9b 3e
       -0.15614852 -0.17692429 0.15398328 0.30276436
0003e0 db 00 00 bd 08 38 dd bc 17 d8 36 3e 1a 81 8c bd
       -0.031250816 -0.027004257 0.17855869 -0.06860562
0003f0 81 b4 fe 3c 31 b4 9e be 36 22 84 3e 0c 88 09 3e
       0.03109193 -0.3099685 0.2580735 0.13430804

rg_rnn.fc.bias f4 [16]
000000 6d 9c 16 3f 23 f4 0a 3f 5a 96 f9 3e 72 9d 10 bf
       0.58832437 0.54278773 0.48747522 -0.5649024
000010 7f 92 06 3f 2e 73 d1 3e 95 e0 36 bf 21 2f 1c bf
       0.52567285 0.40908188 -0.71436435 -0.61009413
000020 c2 37 31 3f 2d 5e fd 3e f9 fd ab 3e f8 8d 2a bf
       0.69225705 0.49485913 0.33592203 -0.6662288
000030 52 73 91 be f0 8f 5c 3e 55 bb 1a 3f 23 ca e0 3e
       -0.28408295 0.21539283 0.60442096 0.43904218

fc1.weight f4 [16, 16]
000000 90 79 02 bd f3 3d 7b be 94 e9 7a be 99 69 7b 3e
       -0.031854212 -0.2453535 -0.24503165 0.24552001
000010 ee 73 09 be 0b 65 c7 be 39 44 41 3e af 78 6f be
       -0.1342313 -0.38944277 0.18873681 -0.23385881
000020 fd fc 8b be df fc 93 3d f0 63 8e 3d 81 64 08 be
       -0.27341452 0.07225966 0.06952655 -0.13319589
000030 d1 a9 f5 3d c8 21 af be 47 6e b3 be c0 55 c6 be
       0.119952805 -0.3420546 -0.35045072 -0.38737297
000040 59 b6 63 3e a3 9f 69 3e fa 44 10 3e 95 9e 94 be
       0.22237529 0.22814803 0.14088812 -0.29027238
000050 2e 04 87 3e 11 b7 a8 3e 06 3d d5 be 76 61 07 be
       0.26370376 0.3295217 -0.4164812 -0.13220772
000060 23 6f 74 3c 8e 65 19 3e 6c 82 c1 3e e2 04 f8 be
       0.014919075 0.14980146 0.37794816 -0.48441225
000070 75 3e 0d be e0 af b2 3e db 4f 3e 3e 6e 63 9f 3e
       -0.13793357 0.34899807 0.1858515 0.31130546
000080 5e 85 af bd 31 47 97 be f2 dc f9 bd f9 e5 f0 3e
       -0.0857036 -0.29546502 -0.12200345 0.47050455
000090 c5 29 81 be c7 52 da be a8 9d 95 3d d4 a2 1a 3e
       -0.2522718 -0.4264128 0.07305461 0.15101177
0000a0 b2 fe 03 bf 3d 3f ef 3c b0 75 06 bd 00 77 83 3e
       -0.5156051 0.029204959 -0.03282708 0.25676727
0000b0 23 a1 06 3e c6 9e 70 be 84 1c 86 bd 1c 7e dc be
       0.13147406 -0.23498067 -0.06548408 -0.43064964
0000c0 87 df b0 be 14 54 6e be 2d 48 4b 3d 32 53 21 3e
       -0.34545538 -0.23274261 0.04962938 0.15754393
0000d0 8b 31 c8 be 85 b6 ef bd 62 aa a6 3d 8b 4c 5c 3e
       -0.39100298 -0.11704735 0.08137967 0.21513574
0000e0 bb b2 a8 be 74 32 5e bd 12 09 ee bd dc 8b 78 bd
       -0.3294886 -0.054247335 -0.11622824 -0.060680255
0000f0 0e 52 16 3e dd d0 a4 be d0 e3 88 be 87 a0 ae be
       0.14679739 -0.321906 -0.26736307 -0.34106848
000100 56 ef a0 bd 53 16 22 be a8 fa 2c be 49 ff e3 3e
       -0.0785815 -0.15828829 -0.16892493 0.44530705
000110 dd 2a 85 be 09 32 fb be 97 21 4f 3e 14 fc a3 3e
       -0.26009265 -0.4906161 0.20227657 0.32028258
000120 ed 9c bf be a0 51 25 be 09 43 be bc 09 dd cd bc
       -0.37424412 -0.16144419 -0.023225324 -0.025129812
000130 d8 1a 64 3e f5 2a ea bd ca de 88 be 9a f9 e7 be
       0.22275865 -0.11433975 -0.26732475 -0.45307618
000140 18 fd b6 bb c0 bc 81 3e bf 82 85 3e c5 40 5f be
       -0.0055843703 0.25339317 0.26076314 -0.21802051
000150 58 61 3c 3e d7 ab 54 3e 68 ec db be f3 fc f0 be
       0.18396509 0.20768677 -0.429538 -0.47067985
000160 4e ce 6d 3e d2 ef c0 3e e2 73 63 3e 4b c2 91 be
       0.2322323 0.37682968 0.22212175 -0.28468546
000170 33 94 ad 3d b4 fb 44 3e 20 33 91 3e a0 69 aa 3d
       0.084755324 0.19236642 0.28359318 0.083209276
000180 2a a3 30 bd 99 be 9f be d1 37 be be ee b9 cf 3e
       -0.043124355 -0.31200102 -0.3715196 0.4057154
000190 df a2 d1 be 45 41 57 be d0 54 65 3e f3 d7 66 bd
       -0.40944573 -0.21020992 0.22395635 -0.05635829
0001a0 01 31 70 bd 31 33 84 be 87 7d 88 be 06 13 9a bd
       -0.058640484 -0.25820306 -0.2665827 -0.0752316
0001b0 45 f5 98 bc ea 0c b0 3d 4b 0a a4 be ff 51 d1 be
       -0.018671641 0.08596213 -0.32039103 -0.4088287
0001c0 41 87 98 be 4b ca 5b be c5 63 a1 be 1b a7 5f 3e
       -0.2979069 -0.21463887 -0.3152143 0.2184109
0001d0 24 83 8a be ba f7 9b be 04 c8 97 3e 15 dd 3b bc
       -0.27053177 -0.30462438 0.29644787 -0.011466284
0001e0 ce 05 06 be 6e d3 85 3d 3b 17 78 be f7 0d d8 3e
       -0.13088152 0.06534468 -0.24227612 0.42198154
0001f0 ed 8d ae 3e 15 af a5 be 21 e5 24 be bf 6e 0c bd
       0.34092656 -0.3236014 -0.1610303 -0.034285303
000200 82 a2 5a bd b9 69 3b bd 7c d0 15 be 84 0f 14 3e
       -0.053377636 -0.04575512 -0.14630312 0.14459044
000210 93 34 b7 be f0 b4 0f be 03 aa b5 3e 03 72 75 3e
       -0.35782298 -0.14033866 0.3548127 0.23969273
000220 dd ac 3f be 37 be 01 be bc 68 9c 3c 10 cb 2a 3d
       -0.18718286 -0.12670217 0.01909291 0.04169756
000230 53 ce 55 3e 92 50 b6 3c 09 ab d5 be 39 0a 4b be
       0.20879488 0.022255216 -0.41732052 -0.19828118
000240 9e 55 cb be 47 35 e5 3d 3d 3b 5e be e3 5a e1 3e
       -0.39713758 0.111918025 -0.21702285 0.44014654
000250 b6 50 d6 be c9 7b c9 bc f8 a7 fc 3d 2b 8a b5 bd
       -0.41858453 -0.024595158 0.12336725 -0.08864244
000260 2c 88 16 3d 8f 05 70 be 6f d2 9f be f2 cf 13 bc
       0.036750957 -0.2343962 -0.31215236 -0.009021746
000270 53 7e 76 3e 43 b6 84 be 7f 2c bb bd fe c2 88 3c
       0.24071626 -0.25920305 -0.09139346 0.016694542
000280 01 a9 a0 3e 7a 13 a1 3e de 7b e6 3e da 71 fc be
       0.3137894 0.31460172 0.45016378 -0.49305612
000290 4d 13 01 3e 2a 4f 02 bc 8d 9f c8 be fb 13 24 be
       0.12605019 -0.0079534445 -0.39184228 -0.16023247
0002a0 1b 6a b8 3e a6 9b fa 3e e6 0b b0 3d ba 05 00 bf
       0.36018452 0.48946875 0.085960194 -0.5000874
0002b0 05 81 b0 be 3d d8 3f bd 04 8b 3a 3e 95 69 be 3e
       -0.34473434 -0.04683708 0.18217093 0.37189928
0002c0 3b 58 c5 3d 1f c1 22 3e 47 4f be bc fc 20 47 be
       0.09635969 0.15893982 -0.023231162 -0.19446176
0002d0 c0 22 91 3e b5 89 9d 3e b8 1e a7 bd e3 8b c8 be
       0.28346825 0.30769125 -0.08160156 -0.39169225
0002e0 3b 90 b9 3e d5 37 c6 3e eb 9e 9f 3e fb 06 06 be
       0.36242852 0.3871447 0.31175932 -0.130886
0002f0 24 e6 79 be 84 bd f9 3d 35 2c ed 3d ce 73 fd 3d
       -0.24404198 0.1219435 0.115806974 0.123756036
000300 28 79 c7 3c 65 21 60 3e c2 8d d8 3e 88 54 59 bc
       0.024349764 0.21887739 0.42295653 -0.013264783
000310 9c fd e3 3b 01 5a 37 bd 51 8a cc be 18 53 53 be
       0.006957723 -0.04476357 -0.39949277 -0.20637167
000320 cb 1d 39 3e ad ee a0 bd 96 c0 ae 3d 1c 61 d0 be
       0.18077771 -0.07858024 0.085328266 -0.4069909
000330 d4 a2 9d be ea 5f 95 3e be 9a c9 3e f1 e3 a2 3e
       -0.3078829 0.2917474 0.3937587 0.3181453
000340 99 59 d1 3e 9d 1a a5 3e 8c e2 c4 bd b0 3b 06 bd
       0.4088867 0.32246867 -0.09613523 -0.032771766
000350 86 a4 a2 3e d0 5f 42 3e 96 fa c8 bd 82 4b e3 be
       0.31766146 0.18981862 -0.098134205 -0.44393545
000360 2c 27 50 3e 82 c2 2b 3e dd 41 a9 bd 11 5a a8 be
       0.20327443 0.16773418 -0.082645155 -0.32881215
000370 a9 ba 9b 3c b6 59 b0 3e fb fd cc bc c1 0a 02 3e
       0.019009905 0.34443444 -0.025023451 0.12699415
000380 d4 56 e4 be f0 1d 04 3e ff 73 aa be 5d 12 98 3e
       -0.44597495 0.12902045 -0.33291623 0.2970151
000390 88 43 9a be f6 74 ae be c4 ad 84 3e ec 76 9d 3e
       -0.30129647 -0.3407361 0.25913823 0.30754793
0003a0 2a d0 8e bc 02 83 12 be 7b 5d a0 be e6 cf 1c 3d
       -0.017433245 -0.14307788 -0.3132132 0.038284205
0003b0 6b bd a0 3e 97 10 97 be 81 fd b3 be 61 e2 93 be
       0.31394514 -0.29504845 -0.35154346 -0.2888365
0003c0 59 7b df 3d 1f 6c 99 bc c2 11 cd 3e 79 58 76 be
       0.109121986 -0.018728314 0.4005261 -0.24057187
0003d0 92 f9 33 bd b9 e7 68 3e ee 30 7f be e0 f2 bf be
       -0.04393918 0.22744645 -0.24921009 -0.37489986
0003e0 ce 2a 7b 3e 42 34 a0 3e 7a 28 31 3e 8a 60 1d be
       0.24528047 0.3128987 0.17300597 -0.15368858
0003f0 29 b6 9c 3d c0 0e 1e 3d bf a9 ad 3d 29 c5 c7 3e
       0.07651932 0.038588285 0.08479642 0.3901761

fc1.bias f4 [16]
000000 c5 b1 9f 3e 07 1a 02 3f b1 dd 13 be a4 71 63 be
       0.31190315 0.50820965 -0.14440037 -0.22211319
000010 be b5 e6 3d 9f 89 1c 3f 63 ee a4 bc 06 d5 50 be
       0.11265133 0.61147493 -0.020133203 -0.20393762
000020 3f 8f c1 bd 5e 00 ce 3c 35 93 ec 3e 40 af 88 3e
       -0.0945115 0.02514666 0.4620606 0.26696205
000030 f5 39 7c 3e 84 17 8b 3e 6a 85 8a 3e 71 f9 e7 3e
       0.24631484 0.27166378 0.27054912 0.45307496

fc2.weight f4 [1, 16]
000000 5e e5 ad be 20 46 9f 3e 93 4a 85 be 38 a2 a6 be
       -0.33964056 0.3110819 -0.26033458 -0.32545638
000010 b1 1f 84 be 63 51 ac 3e 30 95 98 be bf 9b 88 be
       -0.2580543 0.33655843 -0.2980132 -0.26681325
000020 51 b5 91 be 93 7d bd be 80 81 91 3e 99 20 c4 3e
       -0.28458646 -0.37009868 0.28419113 0.3830612
000030 ba 71 d4 3e 6f a4 eb 3e 08 9a 5a be c6 3c da 3e
       0.41493016 0.4602389 -0.21347821 0.4262449
