model.pth (torch, 11144 bytes, 13 tensors)

rg_rnn.rgrnn_cell.i2h.weight f4 [16, 12]
0.108906105 0.10581613 -0.33266965 0.22951706 0.25847992 -0.079306886 0.073702455 -0.09264114
-0.2269522 0.103991754 -0.11549658 -0.029758226 0.16291682 -0.24065608 0.102388136 -0.2617708
0.0061116824 -0.13565871 -0.018754551 -0.10981702 -0.19857988 0.08173879 0.20737773 0.11247001
0.14204857 0.27364156 -0.16465737 0.3160989 -0.03290724 -0.03384224 0.16936399 -0.03819014
-0.2531258 -0.016635882 -0.01895441 -0.118014455 -0.10905707 0.016935797 0.1642445 0.00876959
-0.17539105 0.17581718 -0.22425921 -0.08649162 -0.18741387 -0.22780238 0.15129088 -0.20845902
0.10859002 -0.053289853 0.059743434 -0.10548518 -0.18805067 0.16523498 -0.18178649 0.2252664
0.2522504 0.1743379 0.12583163 0.07425378 0.17842917 0.06641211 0.23121935 0.05234713
0.26424548 0.24682765 -0.2526948 0.19158168 -0.12001602 0.19097224 -0.085853525 -0.22068754
0.2975084 0.27487177 -0.025690274 -0.09418298 0.16526772 -0.07474165 -0.20142853 -0.033147313
-0.23038036 0.0015182548 0.1755788 0.24550487 -0.12439205 0.01212642 0.02058399 0.05017852
0.0034908978 -0.16454129 -0.1872345 0.23013966 0.17472048 0.083332434 -0.22957112 -0.10888195
-0.073514305 0.06364587 0.0070262533 0.19480708 -0.31938547 -0.12454607 -0.23346683 -0.13048914
0.007730381 -0.12827265 -0.19473487 0.07314936 0.16334577 0.35214296 -0.029480483 0.19768617
-0.12369976 0.1778468 0.116756774 0.19538307 -0.062286265 0.08978089 -0.072891586 -0.11239922
0.13592032 -0.21377592 0.086078145 -0.2513513 0.1564108 -0.02663034 0.14747912 -0.085010916
-0.019053658 0.17424421 -0.060489565 -0.07065654 0.14140621 0.04225024 -0.11327012 -0.18975706
-0.08703301 0.13882062 -0.12673272 0.14801408 0.12811488 -0.035134323 -0.13685532 -0.01485901
-0.07319789 -0.10990369 -0.002230742 0.22821796 0.122613795 -0.078979656 0.23697007 0.13929103
-0.00044748173 -0.103928395 -0.077096924 -0.047936574 -0.2240132 -0.04597298 -0.13710184 -0.080149755
-0.089825906 0.20520297 0.13213386 0.022559155 -0.05155448 -0.20574819 0.0077417684 0.062471706
0.16676697 0.07910422 -0.10349728 0.09909818 0.20012303 0.18857138 0.2833299 -0.2274318
-0.10937626 0.10902958 0.09460357 0.17401478 0.21748224 0.1290782 0.25541577 -0.12961888
-0.26480776 -0.07769309 -0.27231225 -0.12461052 0.07882171 0.14398521 -0.23190723 -0.21166794
00000000: 2a0a df3d 21b6 d83d ad53 aabe 8506 6b3e
00000010: 7b57 843e a66b a2bd 50f1 963d a3ba bdbd
00000020: 2866 68be a1f9 d43d 7989 ecbd 86c7 f3bc
00000030: abd3 263e 8c6e 76be dfb0 d13d d306 86be
00000040: 8244 c83b 1eea 0abe 25a3 99bc bfe7 e0bd
00000050: 8658 4bbe ab66 a73d d45a 543e ad56 e63d
00000060: 2e75 113e bf1a 8c3e f19b 28be b7d7 a13e
00000070: bec9 06bd 299e 0abd c16d 2d3e 446d 1cbd
00000080: b499 81be f947 88bc 4746 9bbc 90b1 f1bd
00000090: 5059 dfbd f1bc 8a3c b62f 283e 54ae 0f3c
000000a0: b699 33be 6b09 343e 35a4 65be 8522 b1bd
000000b0: 6ce9 3fbe 0745 69be ffeb 1a3e 4876 55be
000000c0: 7264 de3d 7646 5abd 88b5 743d 9d08 d8bd
000000d0: 5b90 40be 5c33 293e 3d26 3abe 3cac 663e
000000e0: f726 813e a285 323e 02da 003e 5e12 983d
000000f0: 23b6 363e 1303 883d c4c4 6c3e f269 563d
00000100: 2f4b 873e 63c0 7c3e 3661 81be fd2d 443e
00000110: f6ca f5bd 3a8e 433e f9d3 afbd eafb 61be
00000120: 0553 983e febb 8c3e 6974 d2bc 02e3 c0bd
00000130: f13b 293e 2612 99bd 4843 4ebe 7ac5 07bd
00000140: d4e8 6bbe 2d00 c73a eeca 333e a165 7b3e
00000150: 42c1 febd e4ad 463c c19f a83c fe87 4d3d
00000160: 8cc7 643b 837d 28be 67ba 3fbe bba9 6b3e
00000170: ede9 323e 32aa aa3d b114 6bbe 80fd debd
00000180: ab8e 96bd c458 823d 7c3c e63b 827b 473e
00000190: 7e86 a3be 0312 ffbd ee11 6fbe f29e 05be
000001a0: 234f fd3b e859 03be 9468 47be 55cf 953d
000001b0: 1d44 273e 154c b43e 0e81 f1bc 3e6e 4a3e
000001c0: 4d56 fdbd 791d 363e 2d1e ef3d 8012 483e
000001d0: e21f 7fbd 0bdf b73d 2f48 95bd 9031 e6bd
000001e0: b22e 0b3e 13e8 5abe bd49 b03d 1eb1 80be
000001f0: 272a 203e df27 dabc c404 173e 341a aebd
00000200: 6b16 9cbc 136d 323e e8c3 77bd 60b4 90bd
00000210: cacc 103e 960e 2d3d 2afa e7bd ad4f 42be
00000220: 5d3e b2bd fe26 0e3e 39c6 01be 0191 173e
00000230: 8c30 033e 02e9 0fbd cd23 0cbe 3573 73bc
00000240: c6e8 95bd 3015 e1bd a431 12bb f8b1 693e
00000250: f11c fb3d 16c0 a1bd 48a8 723e 4fa2 0e3e
00000260: fb9b eab9 69d8 d4bd fee4 9dbd 2459 44bd
00000270: b763 65be 2a4e 3cbd 6d64 0cbe 8e25 a4bd
00000280: a5f6 b7bd ba20 523e 194e 073e facd b83c
00000290: ca2a 53bd a7af 52be a9ae fd3b 55e2 7f3d
000002a0: f6c4 2a3e 6501 a23d 62f6 d3bd fdf3 ca3d
000002b0: 0ded 4c3e db18 413e 9e10 913e e2e3 68be
000002c0: a900 e0bd e74a df3d 84bf c13d ee30 323e
000002d0: aab3 5e3e 132d 043e dbc5 823e d0ba 04be
000002e0: e294 87be 8e1d 9fbd 836c 8bbe cd33 ffbd
000002f0: 476d a13d dc70 133e 1779 6dbe 7bbf 58be

rg_rnn.rgrnn_cell.i2h.bias f4 [16]
-0.19280773 -0.1706384 -0.19823998 -0.2583175 -0.3742991 0.14119892 0.11435211 -0.38744673
-0.24362662 -0.0031133892 0.11608652 -0.10233009 -0.12585844 0.33907726 0.107736625 -0.042079892
00000000: 646f 45be d5bb 2ebe 6cff 4abe 3142 84be
00000010: 22a4 bfbe 7396 103e 7031 ea3d 6b5f c6be
00000020: 4279 79be 010a 4cbb c5be ed3d 7092 d1bd
00000030: 09e1 00be 899b ad3e 05a5 dc3d f75b 2cbd

rg_rnn.rgrnn_cell.h2h.weight f4 [16, 16]
0.053232208 -0.12292946 0.076789886 0.061402947 -0.08605063 0.10215052 -0.14358944 0.12042389
-0.023927059 -0.15466768 -0.119603366 0.07479863 0.16725081 -0.12511618 0.14981136 -0.16394342
0.25921813 -0.1960763 0.008922732 0.17469567 0.01140463 0.18220243 0.1146147 -0.1957342
-0.08791444 0.2556519 -0.012284214 0.1136706 0.08911663 -0.12617436 -0.24979842 0.10599399
-0.1241305 0.09161716 -0.17965406 0.048870783 -0.013832728 0.16840297 -0.12233815 -0.09608652
0.3825721 -0.38760254 0.11158589 -0.041142754 -0.35446176 -0.26302597 0.17306969 0.2618107
0.18375619 0.336522 0.2800679 0.11847051 0.21429813 -0.2966273 -0.24555479 0.23465912
0.20622922 -0.061268207 0.21410273 0.19058917 0.046957783 -0.20494302 -0.08020093 -0.059318546
0.12721 -0.047322508 -0.1504823 0.25946704 -0.027940748 -0.17491311 -0.118055806 -0.11598656
0.007300718 0.004935531 -0.16335861 0.11167771 0.0049142856 -0.08107052 -0.055170212 0.11009385
-0.22733973 -0.11428807 -0.06924025 0.01702576 -0.13938414 0.051193453 -0.04405308 -0.20530815
0.08100465 -0.23274525 -0.054471366 -0.05484258 -0.032211676 0.1234093 0.087121256 -0.081660956
0.024224136 -0.13781764 0.17877254 -0.35911992 -0.3286068 -0.009526747 0.08461724 0.13339634
-0.26589108 0.21892686 -0.09643938 0.062018596 -0.05541688 0.095582224 -0.15141813 0.08490155
0.13538447 0.29200807 -0.20866376 0.2523147 0.18129764 -0.22457236 -0.16477236 -0.021224901
0.0960879 0.26029152 0.20972125 0.30734175 -0.0121011995 0.022543292 -0.093209624 0.09061433
-0.20066649 0.3273392 0.07974651 -0.062325038 0.32344767 -0.19824007 0.20284955 -0.049880426
0.099966 -0.0064239395 -0.1953278 0.033678748 -0.085540526 -0.17742053 -0.054865833 0.0844491
-0.16422911 -0.014232885 0.20959151 -0.002938031 0.086723015 -0.106424175 0.036722347 -0.16421248
-0.045943297 -0.13142912 -0.028463045 -0.18935221 -0.0057299123 0.06374523 0.14792275 -0.16192056
0.10415532 0.29305738 0.041136783 0.10650729 0.17263782 -0.1968196 -0.21198964 0.054732587
0.1416174 -0.26013866 0.07550719 0.19679062 -0.18275435 0.061383724 0.07696039 -0.06765518
0.12402651 0.32275906 -0.26842976 0.17099418 0.17717388 -0.09969797 -0.041576758 0.2901131
0.24768157 0.17810193 -0.2172285 -0.07330866 -0.1306589 -0.20504351 -0.0014890097 -0.21952324
-0.07245951 -0.024212247 0.11124367 -0.3456735 0.0178055 0.012562749 0.24085064 -0.11790108
-0.10885461 0.32908452 0.096272886 -0.28207934 0.171776 0.17047365 0.38122314 -0.18873973
0.06891111 0.07445279 0.17542541 -0.30661115 0.083964735 -0.12597728 0.04164881 -0.23085564
0.120032914 0.20879416 -0.16363057 -0.14309315 -0.16392483 -0.16906539 -0.12372881 0.009939954
-0.2940337 -0.100470684 0.047282882 0.118780725 0.10125241 0.10717803 -0.037157297 0.23657157
0.067964725 0.14179556 0.32964677 0.14122538 -0.05478308 -0.12951647 -0.08282958 0.12037451
-0.02540354 -0.14382702 0.12391915 0.09676515 0.19877037 -0.010870429 -0.07676699 0.23701209
-0.15747094 -0.1705048 -0.25803173 -0.08512165 0.062039703 0.23124692 -0.10775478 -0.12415567
00000000: 040a 5a3d 71c2 fbbd 0444 9d3d a881 7b3d
00000010: 503b b0bd 4b34 d13d 1c09 13be cda0 f63d
00000020: ae02 c4bc 3461 1ebe 9cf2 f4bd 0630 993d
00000030: cc43 2b3e 751e 00be 2668 193e c9e0 27be
00000040: 3db8 843e 3ac8 48be a730 123c 6ce3 323e
00000050: 7cda 3a3c 4693 3a3e 1dbb ea3d 8c6e 48be
00000060: 7c0c b4bd cee4 823e ba43 49bc 22cc e83d
00000070: c882 b63d da33 01be 28cb 7fbe 6113 d93d
00000080: 2238 febd c7a1 bb3d 3cf7 37be bb2c 483d
00000090: aba2 62bc d471 2c3e 6d8c fabd 02c9 c4bd
000000a0: 7ee0 c33e d773 c6be 2587 e43d 4e85 28bd
000000b0: 037c b5be 57ab 86be 2e39 313e 0d0c 863e
000000c0: 952a 3c3e 9d4c ac3e 0f65 8f3e aba0 f23d
000000d0: f870 5b3e 89df 97be b772 7bbe 7b4a 703e
000000e0: c12d 533e 5ff4 7abd bf3d 5b3e cf29 433e
000000f0: ce56 403d 95dc 51be 6340 a4bd 01f8 72bd
00000100: 5743 023e 3fd5 41bd 0818 1abe ddd8 843e
00000110: ffe3 e4bc 6c1c 33be 3ec7 f1bd 5d8a edbd
00000120: dd3a ef3b 3cba a13b 7b47 27be 49b7 e43d
00000130: 0408 a13b 4d08 a6bd 29fa 61bd e278 e13d
00000140: bfcb 68be dd0f eabd d5cd 8dbd 9b79 8b3c
00000150: b7ba 0ebe 3ab0 513d 0171 34bd 4d3c 52be
00000160: c4e5 a53d c554 6ebe 5e1d 5fbd 9da2 60bd
00000170: 64f0 03bd 04be fc3d a16c b23d dc3d a7bd
00000180: b271 c63c 1120 0dbe 2610 373e 91de b7be
00000190: 273f a8be 1316 1cbc ce4b ad3d 0d99 083e
000001a0: e022 88be 5d2e 603e 0282 c5bd 3607 7e3d
000001b0: cffc 62bd 9dc0 c33d 5b0d 1bbe dde0 ad3d
000001c0: 3aa2 0a3e 1582 953e f4ab 55be 642f 813e
000001d0: 17a6 393e 4cf6 65be 16ba 28be d8df adbc
000001e0: bcc9 c43d ee44 853e 2bc1 563e e65b 9d3e
000001f0: 1c44 46bc b6ac b83c b0e4 bebd 0194 b93d
00000200: 847b 4dbe 0199 a73e 2352 a33d 8a48 7fbd
00000210: ef9a a53e 72ff 4abe cbb7 4f3e 6b4f 4cbd
00000220: f9ba cc3d e97f d2bb 0304 48be baf2 093d
00000230: df2f afbd baad 35be ffba 60bd a6f3 ac3d
00000240: ad2b 28be 0c31 69bc 289f 563e fb8b 40bb
00000250: d69b b13d ebf4 d9bd 2c6a 163d 5127 28be
00000260: 0a2f 3cbd 5b95 06be 552b e9bc 8ce5 41be
00000270: fdc1 bbbb dc8c 823d 1079 173e 81ce 25be
00000280: 624f d53d 9e0b 963e 0b7f 283d 7e20 da3d
00000290: f8c7 303e 148b 49be d013 59be 472f 603d
000002a0: 2704 113e e530 85be 83a3 9a3d 7b83 493e
000002b0: f523 3bbe 806d 7b3d 699d 9d3d cd8e 8abd
000002c0: 9c01 fe3d ad40 a53e a06f 89be 1919 2f3e
000002d0: 126d 353e 732e ccbd 644c 2abd b489 943e
000002e0: 3da0 7d3e 5a60 363e 2671 5ebe da22 96bd
000002f0: 72cb 05be edf6 51be e02a c3ba b3ca 60be
00000300: a765 94bd c358 c6bc b9d3 e33d 1efc b0be
00000310: d7dc 913c fdd3 4d3c 8da1 763e 1f76 f1bd
00000320: 2aef debd c47d a83e b82a c53d b46c 90be
00000330: 0ce6 2f3e a590 2e3e ae2f c33e fd44 41be
00000340: 4521 8d3d b47a 983d b8a2 333e 23fc 9cbe
00000350: b4f5 ab3d 3000 01be f197 2a3d 6c65 6cbe
00000360: d1d3 f53d 23ce 553e c68e 27be 0387 12be
00000370: e9db 27be 7a1f 2dbe 8865 fdbd 30db 223c
00000380: 968b 96be 93c3 cdbd b2ab 413d 4f43 f33d
00000390: 6c5d cf3d 2880 db3d 4032 18bd d13f 723e
000003a0: 1731 8b3d db32 113e 76c7 a83e 639d 103e
000003b0: 3964 60bd f79f 04be 8ea2 a9bd e986 f63d
000003c0: 161b d0bc 6447 13be 53c9 fd3d cf2c c63d
000003d0: 768a 4b3e e219 32bc 0338 9dbd 4cb3 723e
000003e0: 1040 21be cf98 2ebe bc1c 84be 4254 aebd
000003f0: 581d 7e3d fecb 6c3e 8aae dcbd 5445 febd

rg_rnn.rgrnn_cell.h2h.bias f4 [16]
-0.35792527 -0.28002283 -0.165961 -0.2077445 -0.33800277 0.024335336 0.0106842 0.048049748
-0.17690839 0.11127868 -0.23311774 -0.2557089 0.00015655755 -0.11906564 1.2357111e-05 -0.019622035
00000000: fb41 b7be 275f 8fbe aef1 29be f9ba 54be
00000010: b30e adbe e65a c73c c80c 2f3c d0cf 443d
00000020: 7927 35be 14e6 e33d 6bb6 6ebe 47ec 82be
00000030: 9929 2439 b0d8 f3bd 6351 4f37 64be a0bc

rg_rnn.rgrnn_cell.h2i.weight f4 [12, 16]
-0.18489027 -0.13161671 0.027393341 0.099440485 -0.19855008 -0.2003007 -0.08779949 -0.22720274
-0.16153759 0.10007423 -0.032874495 0.1368376 0.12699139 -0.10355678 0.07351449 0.16512579
-0.16375643 -0.051055312 -0.103646606 -0.027972966 0.23429796 0.10960019 0.21904519 -0.083664805
-0.16456613 -0.113378316 0.017264962 0.15987378 -0.15733445 0.026179343 0.0018071532 0.15725622
0.04208377 0.07603076 0.06480962 0.15906891 0.14085853 0.17860901 0.010160536 -0.19581586
0.08874616 0.07904354 -0.18364897 -0.11382663 -0.045586884 0.13080788 -0.15149784 -0.21633974
0.18832085 -0.18920577 0.034455925 -0.13224804 -0.029842079 -0.19504213 -0.06954074 0.20556521
0.091247946 0.14129296 0.047713667 0.08132535 -0.13204345 -0.10401347 -0.1504567 -0.010799408
0.22000247 0.106188 -0.07745737 -0.020280868 0.13990575 -0.05405903 0.06934559 -0.099940896
-0.16226071 -0.12364134 -0.10496858 0.13202646 -0.052626193 0.029486984 -0.2342403 -0.24476194
-0.20151109 0.20851809 0.094536096 0.07856351 -0.012482345 0.047005564 0.08455381 0.11522043
0.12816733 0.018145412 0.1836676 0.053043187 0.07055107 0.13428485 -0.05892694 -0.124898314
0.12136775 -0.018091708 0.0029548109 0.11250952 -0.10457739 0.071374774 -0.115780085 -0.19720936
-0.045967996 0.19715145 -0.08623707 0.006254643 0.00076428056 -0.13420346 -0.085954875 0.16913232
-0.021190226 0.14497504 0.13896254 0.10695058 0.20235592 -0.081293225 -0.11958414 -0.17511311
0.19301713 0.17293271 -0.14418623 0.089051634 0.14889398 -0.13422656 -0.1371719 -0.12121087
0.0065966845 -0.15662149 -0.18477276 0.14204478 0.121846646 0.082239 0.06704837 -0.037463456
-0.012729585 0.075148076 -0.14198089 0.0027315915 0.040758908 -0.0712609 0.07108912 0.09383902
-0.01493153 -0.18485597 -0.1246984 -0.047297508 0.040655673 -0.18855807 -0.01358372 0.07424542
-0.09511033 0.1346662 0.10220903 -0.124670506 -0.0009006262 0.050240368 -0.08435914 0.098596156
-0.043494463 0.21542075 0.21832928 0.20346338 0.21650797 -0.044852972 -0.07147348 -0.10415003
-0.21009907 -0.17355683 -0.13912728 -0.013329834 -0.005424589 0.030644596 -0.047944337 0.07534221
-0.22987187 -0.22879088 -0.12023005 -0.24934414 0.051924437 0.1430135 0.06723833 0.063711524
-0.2412282 -0.074370384 0.009869158 -0.010008156 0.13070372 0.044356912 0.18611613 0.09950891
00000000: e053 3dbe 88c6 06be 0068 e03c 74a7 cb3d
00000010: b650 4bbe a01b 4dbe 38d0 b3bd d6a7 68be
00000020: 1c6a 25be b8f3 cc3d 68a7 06bd 281f 0c3e
00000030: 080a 023e 9415 d4bd c48e 963d bc16 293e
00000040: c4af 27be 601f 51bd ac44 d4bd 9027 e5bc
00000050: ceeb 6f3e 1076 e03d 624d 603e 7458 abbd
00000060: 0684 28be e432 e8bd 406f 8d3c f4b5 233e
00000070: 481c 21be 1076 d63c 00de ec3a c607 213e
00000080: 0860 2c3d 04b6 9b3d e8ba 843d f6e2 223e
00000090: 383d 103e 48e5 363e 6078 263c f483 48be
000000a0: 8cc0 b53d 94e1 a13d 7a0e 3cbe f01d e9bd
000000b0: 50b9 3abd 80f2 053e 4022 1bbe 2a88 5dbe
000000c0: 2ed7 403e 28bf 41be a821 0d3d 086c 07be
000000d0: 6077 f4bc 20b9 47be 606b 8ebd b07f 523e
000000e0: 34e0 ba3d 1aaf 103e 686f 433d e88d a63d
000000f0: 6636 07be 0405 d5bd 5211 1abe 00f0 30bc
00000100: 5448 613e 1879 d93d f8a1 9ebd 1024 a6bc
00000110: 7443 0f3e 006d 5dbd 1005 8e3d d0ad ccbd
00000120: ac27 26be ac37 fdbd c4f9 d6bd f231 073e
00000130: 908e 57bd b08e f13c b0dc 6fbe e0a2 7abe
00000140: ec58 4ebe c485 553e 249c c13d e8e5 a03d
00000150: c082 4cbc e888 403d 8c2a ad3d b0f8 eb3d
00000160: 4c3e 033e b0a5 943c 5c13 3c3e d043 593d
00000170: 147d 903d f881 093e 605d 71bd b0ca ffbd
00000180: a88f f83d 1035 94bc 80a5 413b 646b e63d
00000190: ac2c d6bd f02c 923d 1c1e edbd 40f1 49be
000001a0: f048 3cbd 12e2 493e 109d b0bd c0f3 cc3b
000001b0: 005a 483a a26c 09be 1c09 b0bd 0631 2d3e
000001c0: 2097 adbc 5674 143e 324c 0e3e e808 db3d
000001d0: 6436 4f3e 107d a6bd 88e8 f4bd da50 33be
000001e0: 48a6 453e 4615 313e 8ea5 13be b460 b63d
000001f0: aa77 183e b072 09be ca76 0cbe 683d f8bd
00000200: 0029 d83b 6261 20be 1235 3dbe 3074 113e
00000210: bc8a f93d ec6c a83d a850 893d 4873 19bd
00000220: c08f 50bc 3ce7 993d 7063 11be 8004 333b
00000230: d0f2 263d 3cf1 91bd 2c97 913d ac2e c03d
00000240: 60a3 74bc e24a 3dbe e061 ffbd 08bb 41bd
00000250: 9086 263d 5e15 41be 408e 5ebc fc0d 983d
00000260: 34c9 c2bd f0e5 093e f852 d13d 4053 ffbd
00000270: 0018 6cba d8c8 4d3d 7cc4 acbd c8ec c93d
00000280: 4027 32bd 4297 5c3e b691 5f3e b458 503e
00000290: 44b4 5d3e c0b7 37bd b060 92bd 9c4c d5bd
000002a0: 3624 57be e2b8 31be 6277 0ebe 6065 5abc
000002b0: c0c0 b1bb 600a fb3c 4861 44bd 044d 9a3d
000002c0: 8863 6bbe 2848 6abe 2c3b f6bd 1254 7fbe
000002d0: b8ae 543d 2272 123e 40b4 893d 307b 823d
000002e0: 8604 77be 804f 98bd 40b2 213c 40f9 23bc
000002f0: 32d7 053e 98af 353d 3a95 3e3e 54cb cb3d

rg_rnn.rgrnn_cell.h2i.bias f4 [12]
-0.120116174 0.19713211 -0.006265998 -0.08365056 0.18855041 0.07455701 -0.016627371 -0.22542205
-0.034006655 -0.16955942 -0.22693813 -0.1445215
00000000: 78ff f5bd 00dd 493e 0053 cdbb fc50 abbd
00000010: 5c13 413e 58b1 983d 2036 88bc 0ad5 66be
00000020: 904a 0bbd fca0 2dbe 7862 68be 72fd 13be

rg_rnn.rgrnn_cell.forget_gate.weight f4 [16, 28]
0.016228653 -0.1821125 -0.033657778 0.16757968 0.005127405 0.15409832 -0.15276752 0.15381306
0.16621259 -0.13233085 0.18697637 -0.03324096 -0.18598586 0.07595235 -0.1860089 -0.18119034
0.08736001 0.10747162 0.021122754 -0.03827514 0.047791716 -0.03318148 -0.14830875 0.14961158
0.049010955 -0.18469502 0.117423154 0.044546742 -0.14892831 -0.106823206 -0.05840912 0.034373328
0.0034687936 -0.16097145 0.03327795 -0.11440767 -0.0800512 -0.103530586 -0.063562565 -0.04035945
0.07895343 0.03327333 -0.053906202 -0.08031257 0.15279809 0.08677934 0.011764215 -0.12848678
-0.073324904 -0.05763367 0.1408579 -0.15121259 0.158645 -0.14330922 0.15331733 0.17781153
0.011310966 0.17891082 0.101826556 0.023194356 -0.18437113 0.15385425 0.05479263 0.12099862
0.10682758 0.15130296 -0.09439037 -0.03123221 0.04607534 0.09131821 0.034508612 0.13643098
-0.16443668 -0.18424043 0.030614503 0.02874935 0.17094454 -0.13141154 -0.17418477 -0.18597816
-0.06490238 0.09151729 0.18309368 0.14210166 0.0020187958 0.06141901 -0.060203645 -0.16679911
-0.1492159 -0.09821365 -0.083349906 -0.0028758903 -0.030470524 0.08899835 -0.05473811 -0.1449318
-0.050708856 0.05600493 -0.06727363 0.04159466 0.08588431 -0.18446746 0.14887749 -0.11837252
0.16966172 -0.048687242 -0.04797726 -0.09718674 0.17317596 -0.027970385 0.009465616 0.09479223
-0.13727632 0.11353898 -0.016216127 0.065483816 0.16664964 0.09403954 -0.09674166 0.003957413
-0.13660592 -0.0017829005 0.056814242 0.18075874 -0.046346787 0.116899475 0.09200837 -0.06475558
0.13798973 -0.049635757 -0.06588766 0.15529127 0.04032597 0.11903824 -0.15673631 -0.1670338
-0.06224486 0.17824002 0.025666198 -0.17924657 0.062236115 -0.044585694 0.10922282 -0.17767009
-0.08582848 0.015416593 0.09467155 -0.051429674 0.15026653 -0.12344573 -0.08067024 0.14517827
-0.16364439 0.12192787 0.078555375 0.025190398 -0.013816285 -0.17156444 -0.08620137 0.049408063
-0.08134384 0.024898384 0.10499119 -0.11041593 -0.12549862 0.10205175 0.028619654 0.16634971
0.14455582 0.051147416 0.006461922 0.11654317 0.09558969 -0.03377574 0.13256961 -0.16115977
-0.12065093 -0.16483133 -0.116156876 -0.03502708 -0.043401532 -0.13547711 -0.17766713 0.049193818
0.024021668 -0.13780965 -0.09892832 0.16360323 -0.17167163 -0.09524913 -0.15165286 -0.109337784
0.11674322 0.12001446 0.09644271 -0.00563434 0.1553723 -0.022168929 0.1847811 0.17800017
-0.10045381 -0.12983483 -0.08711763 0.047975615 -0.017224725 -0.13134143 -0.16161886 0.035641003
0.14725357 -0.0064536314 -0.18096751 0.044179663 -0.15169115 0.17389931 0.1864219 0.10380025
-0.014504709 -0.06230271 -0.17184708 0.054341927 0.076161034 -0.013306647 -0.026034629 -0.027784795
0.016770506 0.14777288 -0.02724427 -0.017207537 -0.124523126 -0.127218 -0.026025144 -0.12680148
-0.010025876 -0.11831821 0.04209076 0.18551454 -0.064972214 0.16962625 -0.021219693 -0.023358498
0.18824461 0.1743442 -0.008531745 0.18772684 0.07748796 -0.06591638 0.17908989 0.15726075
-0.06988461 -0.06998545 -0.08670047 -0.046024967 -0.1745867 0.16461924 -0.13847433 -0.04976007
00000000: f4f1 843c b37b 3abe bddc 09bd 029a 2b3e
00000010: ca03 a83b f3cb 1d3e 176f 1cbe 2c81 1d3e
00000020: a233 2a3e bd81 07be bc76 3f3e ac27 08bd
00000030: 1473 3ebe e88c 9b3d 1e79 3ebe f689 39be
00000040: cee9 b23d 151a dc3d a009 ad3c 65c6 1cbd
00000050: 3fc1 433d 4ee9 07bd 40de 17be c733 193e
00000060: b6bf 483d b120 3dbe 8d7b f03d a576 363d
00000070: aa80 18be 20c6 dabd 673e 6fbd 0ccb 0c3d
00000080: b354 633b b3d5 24be 764e 083d 924e eabd
00000090: e2f1 a3bd d807 d4bd 172d 82bd f34f 25bd
000000a0: 56b2 a13d 9e49 083d c0cc 5cbd eb7a a4bd
000000b0: 1a77 1c3e 5eb9 b13d b2be 403c 0a92 03be
000000c0: 5e2b 96bd 4811 6cbd 0e3d 103e 79d7 1abe
000000d0: d673 223e a7bf 12be 38ff 1c3e 3a14 363e
000000e0: a151 393c 6634 373e 718a d03d 1702 be3c
000000f0: c9cb 3cbe f88b 1d3e 3d6e 603d 20ce f73d
00000100: 6bc8 da3d 2aef 1a3e bd4f c1bd b1da ffbc
00000110: 7fb9 3c3d 0b05 bb3d e758 0d3d 90b4 0b3e
00000120: 1762 28be 86a9 3cbe 44cb fa3c c283 eb3c
00000130: 160c 2f3e bf90 06be 7e5d 32be 0f71 3ebe
00000140: 8aeb 84bd 6b6d bb3d e97c 3b3e 1983 113e
00000150: c64d 043b 8092 7b3d 1998 76bd 63cd 2abe
00000160: 0ecc 18be 3d24 c9bd 5bb3 aabd 6f79 3cbb
00000170: 529d f9bc c444 b63d 1235 60bd 0069 14be
00000180: 17b4 4fbd 6d65 653d c2c6 89bd 2a5f 2a3d
00000190: 1de4 af3d 0ae5 3cbe 5773 183e 4b6d f2bd
000001a0: cdbb 2d3e 466c 47bd ce83 44bd d709 c7bd
000001b0: 0a55 313e 2622 e5bc ac15 1b3c 6e22 c23d
000001c0: 2a92 0cbe 2087 e83d afd7 84bc 611c 863d
000001d0: 34a6 2a3e cd97 c03d 7e20 c6bd 30ad 813b
000001e0: 6ce2 0bbe 37b0 e9ba 0db6 683d d218 393e
000001f0: 21d6 3dbd fe68 ef3d e26e bc3d 939e 84bd
00000200: 2e4d 0d3e dd4e 4bbd 1cf0 86bd ad04 1f3e
00000210: d82c 253d 52ca f33d 7c7f 20be e90a 2bbe
00000220: 77f4 7ebd 8d84 363e eb41 d23c 6a8c 37be
00000230: 4ceb 7e3d 7d9f 36bd 37b0 df3d 26ef 35be
00000240: d8c6 afbd e195 7c3c 28e3 c13d eca7 52bd
00000250: 78df 193e 1dd1 fcbd 7036 a5bd 9da9 143e
00000260: 6592 27be 52b5 f93d a4e1 a03d 185c ce3c
00000270: b35d 62bc 97ae 2fbe 588a b0bd 1c60 4a3d
00000280: 9997 a6bd b2f7 cb3c 9f05 d73d bf21 e2bd
00000290: b682 00be 8200 d13d c473 ea3c 9457 2a3e
000002a0: 7106 143e f47f 513d 88be d33b 2fae ee3d
000002b0: 87c4 c33d 6e58 0abd 54c0 073e 1107 25be
000002c0: d617 f7bd 8bc9 28be a8e3 edbd 8e78 0fbd
000002d0: cec5 31bd 83ba 0abe 5fee 35be 757f 493d
000002e0: 17c9 c43c f91d 0dbe ee9a cabd 9b87 273e
000002f0: b0ca 2fbe fa11 c3bd e34a 1bbe 7dec dfbd
00000300: 1217 ef3d 24ca f53d c183 c53d 45a0 b8bb
00000310: eb19 1f3e 9d9b b5bc 4237 3d3e ad45 363e
00000320: baba cdbd 6cf3 04be ba6a b2bd 1482 443d
00000330: de1a 8dbc 5e7e 06be 6a7f 25be 4dfc 113d
00000340: a4c9 163e fc78 d3bb 8c4f 39be bcf5 343d
00000350: ed54 1bbe a912 323e 62e5 3e3e 3a95 d43d
00000360: 29a5 6dbc 2031 7fbd aef8 2fbe a495 5e3d
00000370: 51fa 9b3d 1f04 5abc 9346 d5bc f09c e3bc
00000380: 4d62 893c c651 173e 602f dfbc d2f6 8cbc
00000390: fb05 ffbd 6f45 02be af32 d5bc 3fd8 01be
000003a0: 9243 24bc d150 f2bd 5c67 2c3d 86f7 3d3e
000003b0: 2710 85bd 81b2 2d3e ecd4 adbc 525a bfbc
000003c0: 32c3 403e 4987 323e bbc8 0bbc 773b 403e
000003d0: 02b2 9e3d 2bff 86bd 5763 373e f608 213e
000003e0: aa1f 8fbd 8854 8fbd 0490 b1bd ad84 3cbd
000003f0: dbc6 32be f291 283e 37cc 0dbe 37d1 4bbd

rg_rnn.rgrnn_cell.forget_gate.bias f4 [16]
0.1857235 -0.07256788 0.09787198 -0.06699067 -0.12916872 -0.060794387 -0.02040128 -0.17036584
0.01136963 0.12772533 0.09087359 0.06235081 -0.12187207 -0.06493804 -0.085911795 -0.057308875
00000000: 4d2e 3e3e 789e 94bd 1b71 c83d 6832 89bd
00000010: ce44 04be 8903 79bd 9620 a7bc 6274 2ebe
00000020: af47 3a3c 6eca 023e ef1b ba3d 9063 7f3d
00000030: 1098 f9bd 3cfe 84bd 86f2 afbd b6bc 6abd

rg_rnn.fc.weight f4 [16, 16]
-0.44739038 0.38725334 -0.5674964 0.40497038 0.30106732 -0.18282542 -0.38159615 0.39528596
0.057870403 -0.45178515 0.3503369 0.41792846 0.10354711 -0.0793243 -0.5169523 0.18328957
-0.04806056 0.2045062 -0.5306693 0.04135954 0.08161163 -0.2797632 -0.1443455 0.2052758
0.3076066 -0.12350649 0.31480443 0.21470079 -0.1316504 -0.034602825 -0.32732004 0.06631455
0.16292736 -0.1401792 0.1750985 -0.19737518 -0.4087995 0.35976937 0.25504375 -0.1430621
-0.39494333 0.39695302 -0.33504474 -0.2119786 -0.0237626 0.36214718 0.19273469 -0.46815223
-0.26108873 0.46220633 -0.2315116 0.16370192 0.20289116 -0.37346557 -0.1588897 0.13238767
0.21997349 -0.12765034 0.15496972 0.2604637 -0.07141316 -0.32194838 -0.36114064 0.05594896
0.3071764 -0.38548157 0.31777635 -0.41985664 -0.37253913 0.20223053 0.44992518 -0.31887892
-0.12228569 0.28940076 -0.4375382 -0.43773758 -0.057477117 0.4701848 0.47552145 -0.35177046
-0.13220617 0.36400875 -0.3153093 0.07622907 0.40908018 -0.44842395 -0.08967855 0.4277684
0.101023056 -0.4337572 0.08684012 0.3551931 -0.007925334 -0.45827478 -0.46445152 0.3298268
0.28280407 -0.020201046 0.5725262 -0.09150373 -0.21713547 0.30559346 0.34813622 -0.38441938
-0.26923808 0.37764415 -0.19356439 -0.15011638 0.21586286 0.3956485 0.41925642 -0.22314014
-0.34311938 0.28632483 -0.15458487 0.3335528 0.19083172 -0.4213042 -0.20777054 0.22847594
-0.055057697 -0.42472988 0.41213566 0.1323342 -0.2352261 0.02375765 -0.3641941 0.008303544
-0.037202783 0.3429106 -0.5416575 0.27521026 -0.050345227 -0.11359271 0.010289635 0.35077158
0.3830667 -0.1843994 0.2837732 0.32762715 -0.17832537 -0.37318936 -0.10735543 0.007761015
0.14767875 -0.32180336 0.536086 0.02752941 -0.09288093 0.2294835 -0.038726944 -0.017935501
-0.15496355 -0.041844506 -0.09481973 -0.03822977 0.16716865 0.09339675 0.49742752 0.050961815
0.027591066 -0.19166346 0.1810607 -0.17712885 -0.06058677 0.118502825 0.065272234 -0.25182542
-0.4117395 0.44072315 -0.09389639 -0.13414785 0.3691744 0.08630428 0.45834464 -0.07051931
0.21207614 -0.3739398 0.6124047 -0.033513866 -0.31178954 0.012201807 0.21143542 -0.4573948
-0.119154215 0.22288774 -0.42542267 -0.41305605 0.36673555 0.12991202 0.41770694 -0.20545746
-0.037760325 0.08983403 -0.49248046 0.113685064 0.32126963 -0.27126396 -0.20190288 0.06027671
-0.056418147 -0.43956184 0.012005534 0.3585498 -0.11950163 -0.395007 -0.15933326 0.22468759
0.44718271 -0.1977502 0.20428504 -0.08184358 -0.42510307 0.4995622 0.25078258 -0.38913634
-0.3630457 0.12621285 -0.24934264 -0.2901646 0.15393852 0.06785859 0.25460184 -0.38245434
-0.19963281 0.18645918 -0.14557919 0.01086177 0.37382376 -0.06198997 0.0133624775 0.24753258
-0.007898684 -0.16387063 0.21243352 0.39307368 -0.2667775 -0.033112854 -0.5116352 0.2829333
-0.3184333 0.24629031 -0.33669484 0.45066854 0.4783859 -0.48940858 -0.30161473 0.31564486
0.4167005 -0.43706712 0.42198697 0.26309988 -0.36258504 0.0028282523 -0.552792 0.4475477
00000000: 5a10 e5be 1246 c63e 7247 11bf 4758 cf3e
00000010: 7f25 9a3e 9636 3bbe 9260 c3be ec62 ca3e
00000020: 8409 6d3d 6250 e7be 5c5f b33e b8fa d53e
00000030: 8210 d43d c774 a2bd fc56 04bf 43b0 3b3e
00000040: 26db 44bd 136a 513e f1d9 07bf 9f68 293d
00000050: 0024 a73d 1f3d 8fbe 4fcf 13be d233 523e
00000060: 9d7e 9d3e f8f0 fcbd 0c2e a13e 86da 5b3e
00000070: 5dcf 06be b1bb 0dbd 7e96 a7be eccf 873d
00000080: 6ed6 263e 238b 0fbe 054d 333e b81c 4abe
00000090: 2b4e d1be b133 b83e 1895 823e df7e 12be
000000a0: 0336 cabe 6d3d cb3e fc8a abbe eb10 59be
000000b0: c9a9 c2bc 5b6b b93e 3e5c 453e a6b1 efbe
000000c0: 6cad 85be 4fa6 ec3e 6011 6dbe 7aa1 273e
000000d0: b3c2 4f3e e136 bfbe fbb3 22be a290 073e
000000e0: bb40 613e c5b6 02be 62b0 1e3e 805b 853e
000000f0: 1041 92bd 6bd6 a4be 6de7 b8be bd2a 653d
00000100: 3a46 9d3e d75d c5be 95b3 a23e 73f7 d6be
00000110: 73bd bebe 8515 4f3e 985c e63e 1944 a3be
00000120: eb70 fabd 562c 943e 0205 e0be 241f e0be
00000130: 206d 6bbd 10bc f03e 8c77 f33e 421b b4be
00000140: 0e61 07be 5b5f ba3e 3870 a1be fd1d 9c3d
00000150: f572 d13e d397 e5be 63a9 b7bd 7604 db3e
00000160: 2de5 ce3d 6c15 debe 3cd9 b13d dfdb b53e
00000170: 43d9 01bc fea2 eabe 97cc edbe 0fdf a83e
00000180: b2cb 903e aa7c a5bc 1491 123f 4f66 bbbd
00000190: c358 5ebe bf76 9c3e e93e b23e 9ed2 c4be
000001a0: 93d9 89be 935a c13e be35 46be 1cb8 19be
000001b0: 270b 5d3e 7192 ca3e c7a8 d63e d97e 64be
000001c0: 58ad afbe 2b99 923e 7f4b 1ebe 6fc7 aa3e
000001d0: 6469 433e 2fb5 d7be cdc1 54be 99f5 693e
000001e0: 2e84 61bd 3276 d9be 7203 d33e 9e82 073e
000001f0: 1cdf 70be 679f c23c a677 babe 960b 083c
00000200: f261 18bd fa91 af3e 11aa 0abf 5ce8 8c3e
00000210: cc36 4ebd 4ba3 e8bd db95 283c 5598 b33e
00000220: 5221 c43e 32d3 3cbe b94a 913e bfbe a73e
00000230: ed9a 36be ad12 bfbe 2add dbbd 1d50 fe3b
00000240: 1939 173e 69c3 a4be ef3c 093f 5b85 e13c
00000250: 5b38 bebd b9fd 6a3e 25a0 1ebd 79ed 92bc
00000260: c4ae 1ebe 2565 2bbd d930 c2bd d296 1cbd
00000270: 422e 2b3e cc46 bf3d d2ae fe3e 56bd 503d
00000280: a906 e23c 6d43 44be fa67 393e 4461 35be
00000290: d529 78bd 9cb1 f23d 73ad 853d 43ef 80be
000002a0: 85cf d2be 77a6 e13e c04c c0bd 0e5e 09be
000002b0: 6d04 bd3e 4cc0 b03d 26ac ea3e 6e6c 90bd
000002c0: 7d2a 593e 0a75 bfbe 8ec6 1c3f d645 09bd
000002d0: e1a2 9fbe 17ea 473c 8782 583e a72f eabe
000002e0: 2007 f4bd af3c 643e 00d1 d9be 157c d3be
000002f0: c3c4 bb3e a807 053e afdd d53e 7163 52be
00000300: 92aa 1abd e7fa b73d 6626 fcbe b7d3 e83d
00000310: 747d a43e 1ce3 8abe a1bf 4ebe b6e4 763d
00000320: b716 67bd 400e e1be dcb2 443c d793 b73e
00000330: 45bd f4bd 5c3e cabe 4228 23be 8114 663e
00000340: 22f5 e43e 077f 4abe 1930 513e 9b9d a7bd
00000350: 1ca7 d9be 9ec6 ff3e 9366 803e e13c c7be
00000360: 20e1 b9be f13d 013e ad53 7fbe 7490 94be
00000370: 0fa2 1d3e 72f9 8a3d 2c5b 823e 0ed1 c3be
00000380: 8b6c 4cbe 28ef 3e3e b612 15be 91f5 313c
00000390: d465 bf3e 32e9 7dbd 4bee 5a3c 2e79 7d3e
000003a0: 7b69 01bc b4cd 27be 2c88 593e f440 c93e
000003b0: 0f97 88be 58a1 07bd 86fa 02bf a2dc 903e
000003c0: b109 a3be 8733 7c3e 4463 acbe 07be e63e
000003d0: ffee f43e c393 fabe 3f6d 9abe 349c a13e
000003e0: c559 d53e 43c7 dfbe ad0e d83e 07b5 863e
000003f0: bfa4 b9be 335a 393b c783 0dbf f924 e53e

rg_rnn.fc.bias f4 [16]
0.02400525 -0.34940082 0.33850762 -0.34470186 0.10047682 -0.212889 -0.06539291 -0.3937726
-0.16355123 0.10541599 0.12335937 0.13154203 -0.3190646 0.20259628 -0.152455 -0.15422238
00000000: a8a6 c43c aae4 b2be df50 ad3e c37c b0be
00000010: cac6 cd3d 93ff 59be b8ec 85bd 909c c9be
00000020: f979 27be 57e4 d73d d6a3 fc3d f4b2 063e
00000030: 6f5c a3be 6675 4f3e 2a1d 1cbe 79ec 1dbe

fc1.weight f4 [16, 16]
0.24210045 0.096588634 -0.052341126 0.29900646 -0.16703705 0.323629 -0.17523211 0.26706666
0.33794248 -0.017222371 -0.24634002 -0.20227608 0.31515798 -0.4173489 0.12241102 0.1222685
0.36075392 0.3462208 0.020220825 0.1832003 -0.36995602 -0.0036062358 -0.06409266 0.35211778
0.037476767 -0.119838595 -0.37054172 0.025867712 0.39691144 -0.42731452 0.11511687 0.23396668
-0.27216244 -0.37884104 0.422347 0.007119765 0.31044844 -0.34879893 0.31170815 -0.20034288
-0.21002242 0.278393 0.23405744 0.28620034 -0.3944733 0.087543555 -0.260695 -0.16582504
-0.043008205 -0.053118695 -0.13197847 -0.15377057 -0.0943983 -0.1381233 0.027953988 0.18209206
0.08690968 -0.1299355 0.15495239 0.10786161 -0.09313056 -0.16029978 -0.211937 0.09538161
-0.19848755 -0.13518639 -0.020970665 -0.16512729 0.25555775 -0.10083768 0.28403974 -0.4338636
-0.34335616 0.27875423 -0.0023960266 0.14998218 -0.2894858 0.24833156 0.055491958 -0.3163072
-0.10686763 -0.21133344 0.0093291225 0.017305393 -0.14591599 0.09429328 0.20960885 -0.27122802
-0.06988834 -0.007973421 0.04593139 -0.11981202 0.113920316 -0.033760123 0.14660306 0.12573686
-0.12804475 -0.0040720077 0.35454693 -0.38300183 0.41603744 -0.4133763 0.24176417 -0.06523477
-0.21554835 0.33210006 -0.10278634 0.40381688 -0.1390067 0.22531284 -0.30533093 -0.033446904
-0.13603772 -0.38804758 0.27281097 -0.32766733 0.3343812 -0.18056232 0.069888495 -0.3825695
-0.057049368 0.3016773 0.16977787 0.38542357 -0.34759212 0.013193885 0.03316398 -0.09344855
-0.15284294 -0.33630797 0.29684937 -0.2716542 0.22413768 -0.44129583 0.3496603 -0.15221494
-0.23094735 -0.08221737 0.20940933 0.061386473 -0.13244696 0.4528802 -0.2423387 -0.29297125
-0.020381998 0.13022363 -0.39417478 0.40785325 -0.25312674 0.006294406 -0.3902433 -0.057954483
0.06856309 -0.003805702 -0.25849074 -0.27733356 0.20374459 -0.102689706 0.031257905 0.29232675
-0.21878177 0.08942454 -0.15759714 0.121496364 -0.049798585 0.1820289 0.24191797 0.15776496
-0.010764433 -0.11954689 -0.06370995 0.2816638 0.0010224084 0.030085506 0.20357595 0.055773076
0.18171893 0.1873716 -0.07475589 0.087447904 0.045065165 -0.1753305 0.27704158 0.064460576
-0.13650098 -0.17435521 -0.034181304 -0.00043749253 -0.26509857 0.19271065 -0.0446698 0.17072114
-0.29950017 -0.09148487 0.1965732 -0.22801594 0.06559913 -0.36732793 0.42821622 -0.19570056
-0.23243599 0.20503974 0.0862055 0.15466969 -0.065769844 0.3384238 -0.31110474 -0.15434927
-0.29227635 -0.36139584 0.16653979 -0.4027293 0.020734044 -0.11471543 0.04352122 -0.40933287
-0.10961123 0.34052777 0.26906872 -0.029978562 -0.404223 0.3833616 -0.36123103 -0.4242562
0.38537306 0.10677467 -0.4312509 0.27270326 -0.021421786 0.25030008 -0.27127463 0.026022185
0.06981428 -0.06913728 0.02348257 -0.012653061 0.067794666 -0.1737771 0.20228752 0.18210399
0.01210925 0.07634119 -0.067697994 -0.060020573 -0.29757786 0.4218442 -0.10317911 0.10837644
0.052621085 -0.1702576 -0.18110132 -0.33046117 0.014659399 -0.3536592 0.16065025 0.3484851
00000000: 2ee9 773e 43d0 c53d a663 56bd 6017 993e
00000010: c30b 2bbe b3b2 a53e 0c70 33be f6bc 883e
00000020: cc06 ad3e ee15 8dbc 8f40 7cbe 7621 4fbe
00000030: 635c a13e c1ae d5be a1b2 fa3d e867 fa3d
00000040: bdb4 b83e da43 b13e 25a6 a53c dc98 3b3e
00000050: e06a bdbe 9956 6cbb 0343 83bd c848 b43e
00000060: 3d81 193d f06d f5bd a5b7 bdbe 86e8 d33c
00000070: fa37 cb3e f8c8 dabe 65c2 eb3d f694 6f3e
00000080: e058 8bbe 74f7 c1be de3d d83e eb4c e93b
00000090: 19f3 9e3e c695 b2be 3698 9f3e af26 4dbe
000000a0: 1e10 57be 8789 8e3e c1ac 6f3e da88 923e
000000b0: 68f8 c9be 094a b33d d179 85be 0ace 29be
000000c0: 5f29 30bd fd92 59bd 5d25 07be 0876 1dbe
000000d0: e553 c1bd 3270 0dbe c3ff e43c 5776 3a3e
000000e0: b4fd b13d d00d 05be d7ab 1e3e 8ce6 dc3d
000000f0: 3cbb bebd a025 24be 0306 59be 6f57 c33d
00000100: 5240 4bbe 4d6e 0abe acca abbc 2117 29be
00000110: 77d8 823e fc83 cebd a86d 913e 5f23 debe
00000120: 61cc afbe e0b8 8e3e a806 1dbb ee94 193e
00000130: 7c37 94be a14a 7e3e 894b 633d 04f3 a1be
00000140: 6add dabd cb67 58be 2dd9 183c 0ac4 8d3c
00000150: 006b 15be d61c c13d b4a3 563e 66de 8abe
00000160: 9e21 8fbd f4a2 02bc 8e22 3c3d 0160 f5bd
00000170: 0e4f e93d 0e48 0abd 1d1f 163e 2ac1 003e
00000180: 2a1e 03be 7a6e 85bb 2d87 b53e d118 c4be
00000190: dc02 d53e 0fa6 d3be 0791 773e cf99 85bd
000001a0: b5b8 5cbe 0509 aa3e a581 d2bd 16c1 ce3e
000001b0: c657 0ebe 69b8 663e 5654 9cbe 9fff 08bd
000001c0: 794d 0bbe 2cae c6be e1ad 8b3e 03c4 a7be
000001d0: 0334 ab3e 54e5 38be b321 8f3d 26e0 c3be
000001e0: 99ac 69bd 7275 9a3e 40da 2d3e 3d56 c53e
000001f0: 98f7 b1be 2a2b 583c f4d6 073d f461 bfbd
00000200: dc82 1cbe 8f30 acbe a4fc 973e 4216 8bbe
00000210: 5984 653e 87f1 e1be ad06 b33e 3cde 1bbe
00000220: 767d 6cbe 9561 a8bd 666f 563e 6270 7b3d
00000230: 2da0 07be eadf e73e a327 78be 5400 96be
00000240: 26f8 a6bc 5859 053e 47d1 c9be 24d2 d03e
00000250: d499 81be 4e41 ce3b f8cd c7be ae61 6dbd
00000260: ce6a 8c3d 1669 79bb e658 84be aafe 8dbe
00000270: 6ca2 503e fb4e d2bd 4a08 003d daab 953e
00000280: 5408 60be 3724 b73d 2561 21be 16d3 f83d
00000290: 9af9 4bbd c965 3a3e 58b9 773e 238d 213e
000002a0: 4e5d 30bc 00d5 f4bd 5d7a 82bd 3d36 903e
000002b0: 5502 863a e175 f63c 3776 503e 4f72 643d
000002c0: 8714 3a3e 57de 3f3e 9e19 99bd e317 b33d
000002d0: 4096 383d d789 33be 65d8 8d3e e803 843d
000002e0: eac6 0bbe 2c8a 32be b201 0cbd 415f e5b9
000002f0: 00bb 87be f155 453e aef7 36bd 86d1 2e3e
00000300: 1658 99be 6b5c bbbd 7c4a 493e 037d 69be
00000310: d658 863d 6812 bcbe 283f db3e ba65 48be
00000320: b303 6ebe f0f5 513e 828c b03d bb61 1e3e
00000330: 57b2 86bd e245 ad3e 1f49 9fbe bc0d 1ebe
00000340: 3fa5 95be e008 b9be 6889 2a3e 8932 cebe
00000350: 71da a93c ecef eabd 4f43 323d 1494 d1be
00000360: da7b e0bd a859 ae3e 60c3 893e 9a95 f5bc
00000370: 51f6 cebe f947 c43e 46f3 b8be 1c38 d9be
00000380: 9e4f c53e aeac da3d ebcc dcbe c39f 8b3e
00000390: be7c afbc 5527 803e 82e4 8abe 7a2c d53c
000003a0: cafa 8e3d d997 8dbd 855e c03c c94e 4fbc
000003b0: eed7 8a3d a0f2 31be 7624 4f3e 7879 3a3e
000003c0: e065 463c c558 9c3d 3fa5 8abd 22d8 75bd
000003d0: 205c 98be f7fb d73e 924f d3bd 78f4 dd3d
000003e0: 3589 573d 0258 2ebe a072 39be 3532 a9be
000003f0: fa2d 703c d212 b5be 8081 243e a46c b23e

fc1.bias f4 [16]
0.12639642 0.2637455 0.3199886 -0.1775712 0.34156471 -0.20069447 0.026577732 0.17245443
-0.024363033 -0.10883114 -0.2482435 -0.116239026 0.31215236 -0.04196863 0.045288607 -0.09995676
00000000: 106e 013e a609 873e 8cd5 a33e 3ad5 35be
00000010: 92e1 ae3e da82 4dbe 8bb9 d93c e597 303e
00000020: fc94 c7bc dce2 debd 8b33 7ebe ba0e eebd
00000030: 6fd2 9f3e 4ce7 2bbd 8c80 393d 21b6 ccbd

fc2.weight f4 [1, 16]
-0.41411674 -0.30603012 0.34382337 0.168836 0.21370423 0.0066041755 0.28572434 0.2572696
0.29364127 -0.25035527 0.08700346 0.015379341 0.25856832 0.31866705 -0.32271072 -0.4530812
00000000: 1c07 d4be fbaf 9cbe 9e09 b03e 58e3 2c3e
00000010: 48d5 5a3e d767 d83b 764a 923e d7b8 833e
00000020: 2658 963e 912e 80be df2e b23d a2f9 7b3c
00000030: 1163 843e 5428 a33e 573a a5be 42fa e7be
